229-project/0fkzqpi9/checkpoints/epoch=14-step=675.ckpt (torch, 252506 bytes, 18 tensors)

mlp.mlp.0.weight f4 [128, 15]
0.013184156 0.045649022 -0.226644 -0.14112595 -0.24373658 -0.21541966 0.2724102 0.23129965
0.047920424 0.23632298 -0.10947233 -0.13993543 0.22537382 -0.0136756385 0.041944847 0.18364114
0.10257201 -0.13025133 -0.0911242 -0.26626518 -0.015221398 -0.12162559 0.08071605 0.04140706
0.24094066 0.014562477 0.1429629 0.06012945 0.2290815 -0.09871234 0.24343665 0.15735215
-0.081123605 0.18247473 0.21354224 -0.16501692 -0.12376085 0.20614962 0.22958846 0.08184315
0.055324934 0.20792629 0.19565362 -0.16329908 -0.104017325 0.22335432 0.11858958 -0.12359518
-0.10132893 0.26146662 -0.15002444 0.17809233 0.15276143 -0.2620464 -0.27189723 0.09979112
0.11474029 0.24135782 0.031824216 0.14996018 -0.19291942 0.1622964 -0.25715375 0.18461004
0.042939108 0.1651065 0.08530911 -0.18117002 -0.014788857 0.037997425 0.05406139 -0.22524104
-0.14614159 -0.12162607 -0.14257148 0.20253564 0.17831093 0.07829315 -0.09192835 -0.17944972
0.0778666 0.265837 0.08685776 -0.23291904 -0.041550178 0.041859876 0.14820845 0.14346832
-0.18208359 -0.22757816 0.10448717 0.09361786 0.17200032 0.19212702 0.20563045 -0.12538055
-0.271962 0.14659575 0.27204487 -0.17577037 -0.14389686 0.236994 0.17851672 -0.024694897
-0.13077849 0.080280446 -0.2836472 -0.0787257 -0.021365719 -0.08305398 0.08991757 -0.013918163
-0.1876779 0.0016142277 0.041537665 0.14679311 0.026949588 -0.10669417 0.10056047 0.11737658
0.063119486 -0.15569714 0.081395715 0.054877456 0.13059205 -0.08442324 -0.03268017 0.14787216
-0.02061053 0.14191502 -0.059789576 0.24018224 -0.023388201 -0.054465614 0.084483236 -0.03498513
0.22962005 -0.05652355 0.18842334 -0.050809633 0.03013694 0.066186264 -0.24071041 0.035484616
0.15312241 0.12208856 0.014007116 -0.041576575 0.08125975 0.09422307 -0.14261931 0.11966522
-0.2384622 0.024715679 -0.07410982 -0.09799886 -0.22470492 0.20478614 0.00683992 0.028051658
-0.022263333 -0.10011031 -0.21785323 0.049183752 -0.18376192 -0.13843316 0.15893479 0.19192213
-0.066170074 -0.23722346 0.2691586 0.13129225 0.19083881 -0.059347823 -0.041094337 0.03990889
0.0686851 -0.007345591 -0.13400736 0.24896955 0.13511838 -0.037861165 -0.2084451 -0.10273505
-0.10680475 -0.056819893 0.05490503 -0.030523533 0.10521278 -0.16126072 -0.07628389 0.1333832
0.23102804 -0.21812353 0.02338727 0.16603333 -0.060419004 0.078610085 0.17130399 -0.28019115
0.13192584 -0.25450277 0.07340262 0.18464158 -0.09668102 -0.006850994 -0.23998141 -0.034665037
0.14550199 0.13556662 0.09387775 -0.051390834 -0.08844226 0.19745892 0.059590846 0.07630227
0.12778677 -0.060260687 -0.00021046333 0.24460776 0.2222059 -0.25031087 -0.20740266 -0.07419771
0.058695372 -0.15457551 0.14786102 -0.2501645 -0.015216264 0.18195124 -0.06130238 -0.08309377
0.057750694 0.17872359 0.063014366 0.024482777 -0.0017432716 -0.23821792 -0.1022576 0.25465077
-0.1883549 0.1381416 -0.10374889 0.104066364 0.13289528 0.19242358 -0.17447592 -0.034814447
-0.1929612 0.06309995 -0.10760684 0.028114816 -0.22864372 -0.058278542 -0.21445373 -0.23853359
00000000: 5c02 583c 78fa 3a3d 5d15 68be 5283 10be
00000010: 1596 79be f996 5cbe 5a79 8b3e d1d9 6c3e
00000020: 3548 443d a7fe 713e 0733 e0bd 3c4b 0fbe
00000030: 65c8 663e c90f 60bc 5cce 2b3d 6c0c 3c3e
00000040: 4611 d23d 9b60 05be 539f babd e953 88be
00000050: 2c63 79bc d616 f9bd 754e a53d 739a 293d
00000060: 26b9 763e 7597 6e3c de64 123e 4c4a 763d
00000070: 5794 6a3e b229 cabd 7547 793e ec20 213e
00000080: 2224 a6bd a8da 3a3e d1aa 5a3e 32fa 28be
00000090: 5476 fdbd e318 533e 3d19 6b3e 629d a73d
000000a0: 669c 623d a1ea 543e 6c59 483e e037 27be
000000b0: 0907 d5bd ffb6 643e 18df f23d 781f fdbd
000000c0: 8b85 cfbd f4de 853e 02a0 19be d65d 363e
000000d0: 7e6d 1c3e f22a 86be 1d36 8bbe 495f cc3d
000000e0: f5fc ea3d 8126 773e 1c5a 023d 298f 193e
000000f0: ab8c 45be 0731 263e a8a9 83be 6a0a 3d3e
00000100: ebe0 2f3d ae11 293e 8bb6 ae3d a284 39be
00000110: f64c 72bc 30a3 1b3d 7a6f 5d3d 96a5 66be
00000120: 24a6 15be 1717 f9bd 42fe 11be 8165 4f3e
00000130: 2497 363e 2958 a03d ee44 bcbd abc1 37be
00000140: 8678 9f3d ca1b 883e 7be2 b13d 5482 6ebe
00000150: 8530 2abd 4375 2b3d f5c3 173e 5ce9 123e
00000160: 1f74 3abe 400a 69be 5ffd d53d b8ba bf3d
00000170: da20 303e f2bc 443e ca90 523e c263 00be
00000180: 9a3e 8bbe 321d 163e 7749 8b3e 26fd 33be
00000190: b359 13be 8eae 723e 16cd 363e f44c cabc
000001a0: ccea 05be 136a a43d 353a 91be f13a a1bd
000001b0: 2907 afbc 3418 aabd b426 b83d 0209 64bc
000001c0: a32e 40be 7e94 d33a 6623 2a3d ef50 163e
000001d0: 62c5 dc3c 7982 dabd a6f2 cd3d 2263 f03d
000001e0: ca44 813d 126f 1fbe ccb2 a63d 2fc7 603d
000001f0: ecb9 053e 17e6 acbd a4db 05bd cd6b 173e
00000200: 6ad7 a8bc 2c52 113e eae5 74bd 55f2 753e
00000210: 9d98 bfbc 5617 5fbd 8c05 ad3d 914c 0fbd
00000220: 8521 6b3e 3d85 67bd 0cf2 403e c31d 50bd
00000230: bee1 f63c aa8c 873d ca7c 76be 5158 113d
00000240: 1fcc 1c3e 9109 fa3d 1a7e 653c 334c 2abd
00000250: 836b a63d 06f8 c03d cc0a 12be 0a13 f53d
00000260: 6f2f 74be 8978 ca3c e4c6 97bd a0b3 c8bd
00000270: 0c19 66be 75b3 513e 6821 e03b 97cc e53c
00000280: 9861 b6bc a206 cdbd eb14 5fbe e774 493d
00000290: 162c 3cbe 6cc1 0dbe cdbf 223e 3c87 443e
000002a0: 2d84 87bd b5ea 72be 28cf 893e 7a71 063e
000002b0: 406b 433e b416 73bd 8952 28bd 8177 233d
000002c0: c6aa 8c3d 49b3 f0bb 3a39 09be e0f1 7e3e
000002d0: 795c 0a3e 4f14 1bbd a272 55be c166 d2bd
000002e0: 73bc dabd fabb 68bd 19e4 603d 7d0c fabc
000002f0: cc79 d73d 8821 25be ba3a 9cbd 9b95 083e
00000300: 9d92 6c3e c65b 5fbe a996 bf3c a404 2a3e
00000310: eb79 77bd 53fe a03d 506a 2f3e 3775 8fbe
00000320: 9117 073e 304e 82be 1d54 963d af12 3d3e
00000330: b300 c6bd 4e7e e0bb b0bd 75be edfc 0dbd
00000340: 79fe 143e fad1 0a3e fa42 c03d 327f 52bd
00000350: 3721 b5bd ac32 4a3e 8815 743d 5d44 9c3d
00000360: 89da 023e e9d3 76bd d2af 5cb9 757a 7a3e
00000370: f289 633e bf28 80be 5d61 54be f8f4 97bd
00000380: 8f6a 703d 0b49 1ebe e168 173e 9015 80be
00000390: a34d 79bc 6d51 3a3e 3418 7bbd 112d aabd
000003a0: fe8b 6c3d 5103 373e ad0d 813d 1b90 c83c
000003b0: 7d7e e4ba 66ef 73be 6f6c d1bd 9661 823e
000003c0: 1be0 40be fe74 0d3e 4c7a d4bd bf20 d53d
000003d0: b315 083e b00a 453e d1a9 32be 9899 0ebd
000003e0: 9f97 45be 8c3a 813d fa60 dcbd 0b51 e63c
000003f0: 9421 6abe 7bb5 6ebd c299 5bbe 2642 74be

mlp.mlp.0.bias f4 [128]
0.001893088 0.028562462 0.17804496 -0.13420437 -0.014601116 0.15547885 -0.12193984 0.07562419
-0.18718311 -0.080866896 -0.11778198 -0.2226318 -0.11774406 0.13366075 -0.024588553 0.21279213
0.19554389 -0.2063857 -0.013300553 0.056003947 0.24643554 0.18430603 0.088550866 0.2563808
0.25903872 -0.1829162 -0.062306892 -0.16922131 0.21925469 0.11238412 -0.08841522 -0.12099062
0.013032321 -0.076867245 0.16647519 0.24565944 -0.021670211 0.0637211 -0.16484684 -0.07014155
0.08758918 0.11740282 0.18195318 0.15940556 0.08397174 -0.17848498 0.08932454 0.0038815886
-0.090149544 0.2210162 -0.20616291 0.06292153 0.26598623 0.12406018 -0.24283393 -0.20261523
-0.023338716 -0.024745971 -0.013343373 -0.025934024 0.17952327 0.23718643 -0.12613036 -0.063881435
0.18368395 0.13163422 -0.14666453 0.17710182 0.16430782 0.17916676 -0.041887954 -0.019167317
-0.18246908 -0.0827288 0.026924599 0.07752381 -0.18993945 0.015965909 -0.048090912 0.26202896
0.120396696 0.25200337 -0.08677877 0.06860061 -0.23763417 0.025413314 0.09706088 0.08233605
0.04888178 -0.14852098 -0.03081898 0.13066772 -0.10059047 0.20848264 0.15489255 -0.14403415
0.066688955 0.1779065 -0.056637768 0.13250108 0.031649645 -0.049615942 -0.10948255 -0.08812314
-0.13759011 -0.14449412 -0.14919585 0.16242555 0.20366077 -0.2319677 0.057642102 -0.24665517
0.10015365 -0.17442322 0.21629134 -0.20906845 0.0891591 0.018230816 0.13058573 0.10214518
-0.063502416 0.038051628 0.2237547 -0.017346555 0.16944149 -0.254343 -0.09303258 0.006726986
00000000: 7e21 f83a d3fb e93c 6b51 363e df6c 09be
00000010: 8539 6fbc d935 1f3e 98bb f9bd dbe0 9a3d
00000020: eeac 3fbe 8b9d a5bd ae37 f1bd 97f9 63be
00000030: cc23 f1bd 5dde 083e ef6d c9bc 2ee6 593e
00000040: a83c 483e c656 53be 90ea 59bc 6564 653d
00000050: 9959 7c3e b8ba 3c3e 285a b53d 5844 833e
00000060: b9a0 843e 624e 3bbe 8335 7fbd 5a48 2dbe
00000070: 4d84 603e a529 e63d 0a13 b5bd eec9 f7bd
00000080: 8485 553c 936c 9dbd 7978 2a3e 268e 7b3e
00000090: ba85 b1bc 3580 823d 9ccd 28be 5fa6 8fbd
000000a0: f561 b33d e470 f03d ef51 3a3e 363b 233e
000000b0: 60f9 ab3d c4c4 36be c9ef b63d 4062 7e3b
000000c0: 53a0 b8bd 1252 623e 5f1c 53be 01dd 803d
000000d0: 592f 883e 4313 fe3d 75a9 78be 5e7a 4fbe
000000e0: d630 bfbc 10b8 cabc 2a9e 5abc 9773 d4bc
000000f0: f3d4 373e 00e1 723e 5128 01be 45d4 82bd
00000100: a517 3c3e 1fcb 063e 3a2f 16be 2e5a 353e
00000110: 4f40 283e 7e77 373e b492 2bbd c704 9dbc
00000120: 2dd9 3abe b86d a9bd fa90 dc3c cec4 9e3d
00000130: 7d7f 42be f0ca 823c fafa 44bd a928 863e
00000140: 8b92 f63d 9606 813e 11b9 b1bd 7a7e 8c3d
00000150: 5f56 73be 952f d03c dbc7 c63d ce9f a83d
00000160: 4338 483d e215 18be 1678 fcbc c2cd 053e
00000170: 6002 cebd 797c 553e 279c 1e3e b07d 13be
00000180: 3894 883d 1f2d 363e 01fd 67bd 5dae 073e
00000190: 0fa3 013d 163a 4bbd 6338 e0bd e879 b4bd
000001a0: 6ce4 0cbe 44f6 13be ccc6 18be e252 263e
000001b0: 738c 503e f188 6dbe 201a 6c3d 2c93 7cbe
000001c0: 5b1d cd3d 009c 32be 7a7b 5d3e 0a16 56be
000001d0: 0c99 b63d cb58 953c 44b8 053e 7e31 d13d
000001e0: 8e0d 82bd 06dc 1b3d f41f 653e 5d1a 8ebc
000001f0: 1282 2d3e 3f39 82be de87 bebd 0c6e dc3b

mlp.mlp.2.weight f4 [128, 128]
0.01783325 -0.10020467 0.06007184 -0.018635891 0.00816965 -0.038387123 0.016657898 -0.032880682
-0.07582874 -0.019353695 0.09065095 0.01956863 -0.02770282 -0.07593528 -0.008692972 -0.007475584
0.09168954 0.04787347 0.082894795 0.092099 0.065908454 -0.07908184 0.014815322 0.046914175
-0.0112730395 -0.005088464 -0.025917817 0.07815178 0.01675219 -0.045835912 0.049393073 0.0633774
0.08064617 -0.0074604214 -0.053330924 -0.019605812 -0.038607366 -0.053271536 0.028916404 -0.032764576
-0.05306046 0.05912442 -0.034557216 0.044515792 0.019878805 -0.09584383 0.013723955 -0.043543946
-0.026491346 0.097873695 -0.07053531 -0.045672007 -0.028820077 0.07254699 0.050238132 -0.023396926
-0.095693454 0.07929276 0.028810367 -0.055737905 0.03062763 0.024871206 -0.01739501 0.08567989
0.054058064 0.017299239 -0.021474916 -0.03970369 0.056004044 0.07813484 0.026307521 -0.10025233
-0.026161352 -0.0029654386 -0.07706548 0.05888671 0.033600487 0.07259018 0.004200992 -0.049754556
0.015726378 0.055481687 0.0025374752 -0.026340395 0.02881243 -0.054989617 0.048691846 -0.019125037
-0.023883635 -0.01690964 -0.036793344 0.07738467 0.024110835 -0.019718837 0.03434374 0.02097617
0.023454353 -0.023145711 0.0055967444 -0.032661866 -0.021483663 0.085484065 -0.012730594 0.059498947
0.070476376 0.013848728 0.029542128 -0.016722564 0.05986985 0.06504512 0.0479695 -0.0686935
-0.05173163 0.015788816 0.053199515 -0.016624283 -0.103742555 -0.026348067 -0.053607766 -0.03832136
-0.024968933 0.038743507 0.078911655 0.088913895 0.003782157 -0.061182037 -0.047071278 0.0723254
-0.055196468 0.064765655 -0.06876092 0.034801252 0.074989475 -0.012094446 -0.00019822577 -0.015574079
0.036701888 0.07329626 -0.024429414 -0.0025398396 0.078885235 -0.0010153833 0.010140382 0.026684333
0.057317846 0.0069372836 -0.022982761 0.0032117264 -0.01908235 0.024427338 -0.055386737 0.024898699
0.026240028 0.00036772585 0.05478615 0.10064569 -0.06528923 -0.05483152 0.016814822 0.023145711
-0.0062734718 0.1051179 0.029438267 -0.078812726 0.0222926 -0.056587353 0.05814097 0.07028241
0.090620525 -0.04381122 -0.03559561 -0.041462015 0.05226698 0.0010641562 0.08547353 -0.03908034
-0.020127619 -0.03029155 -0.021104915 -0.006719508 0.09108455 0.052797563 -0.014868263 -0.035823423
-0.01788198 0.07501251 0.04127339 0.08899074 -0.07003512 -0.041835595 0.015362212 0.0148264915
-0.05575013 0.03429845 -0.07920811 -0.056354143 -0.010416266 -0.0031219276 -0.003231099 0.016432833
0.041643605 0.07745035 -0.0068319645 0.09533052 -0.0067619286 0.008087566 0.040527657 0.07167172
0.073435396 0.04104143 -0.060846426 0.100486085 0.0207851 0.049607653 -0.026571278 -0.041122697
0.09886642 -0.0031214824 -0.008747998 0.08784342 0.005639428 -0.03732935 0.04165204 0.052626606
-0.08217625 -0.035525292 -0.029429682 -0.049086347 -0.011050374 0.06761288 0.023247665 0.029942816
0.09450956 -0.015039713 0.09821238 -0.06797991 0.013444393 0.084226176 0.057712525 -0.028727308
-0.011798405 0.04312924 0.09894101 -0.007802227 -0.0865713 0.0044622943 0.018881233 -0.0148725
0.016939009 0.018170267 -0.0076303 0.10377437 -0.02093503 -0.068254806 -0.0006838958 -0.035388753
00000000: 0917 923c 1b38 cdbd e40d 763d 4caa 98bc
00000010: ffd9 053c d13b 1dbd 2576 883c e5ad 06bd
00000020: 194c 9bbd a48b 9ebc 35a7 b93d 644e a03c
00000030: 06f1 e2bc f583 9bbd f86c 0ebc bef5 f4bb
00000040: bac7 bb3d f916 443d bfc4 a93d 679e bc3d
00000050: 03fb 863d a9f5 a1bd f7bb 723c 1429 403d
00000060: 8eb2 38bc 21bd a6bb 9a51 d4bc 0a0e a03d
00000070: e43b 893c 70be 3bbd 6450 4a3d 03cc 813d
00000080: d229 a53d 8d76 f4bb 8771 5abd 5e9c a0bc
00000090: c222 1ebd 4133 5abd 18e2 ec3c 2634 06bd
000000a0: ed55 59bd 732c 723d de8b 0dbd 3156 363d
000000b0: e0d8 a23c c549 c4bd 70da 603c 235b 32bd
000000c0: 6104 d9bc 0172 c83d d174 90bd 9212 3bbd
000000d0: 1518 ecbc 8493 943d 80c6 4d3d e9aa bfbc
000000e0: eefa c3bd 3e64 a23d b803 ec3c 6e4d 64bd
000000f0: cce6 fa3c b3be cb3c fb7f 8ebc f078 af3d
00000100: fd6b 5d3d 22b7 8d3c 2aec afbc 56a0 22bd
00000110: 7f64 653d 2905 a03d df82 d73c 1851 cdbd
00000120: 5550 d6bc ce57 42bb 82d4 9dbd 3133 713d
00000130: aaa0 093d 29aa 943d 7aa8 893b 6fcb 4bbd
00000140: 9bd4 803c c440 633d c54b 263b d0c7 d7bc
00000150: 0c08 ec3c cb3c 61bd 1a71 473d 1cac 9cbc
00000160: 9da7 c3bc 1686 8abc 9eb4 16bd db7b 9e3d
00000170: 1684 c53c 6689 a1bc 06ac 0c3d 38d6 ab3c
00000180: 5823 c03c 139c bdbc e564 b73b 73c8 05bd
00000190: 82fe afbc 4512 af3d fb93 50bc 2bb5 733d
000001a0: eb55 903d c6e5 623c 5502 f23c c2fd 88bc
000001b0: 163a 753d 6036 853d ab7b 443d 2daf 8cbd
000001c0: 8ce4 53bd 8c57 813c bce7 593d a62f 88bc
000001d0: fa76 d4bd e7d7 d7bc d193 5bbd dcf6 1cbd
000001e0: a68b ccbc 83b1 1e3d 6f9c a13d 7d18 b63d
000001f0: 11de 773b 049a 7abd d0cd 40bd 571f 943d
00000200: b115 62bd dba3 843d 86d2 8cbd c28b 0e3d
00000210: 1594 993d c927 46bc d3da 4fb9 6c2a 7fbc
00000220: b854 163d 591c 963d 3220 c8bc 7073 26bb
00000230: 958e a13d 9c16 85ba d823 263c 1a99 da3c
00000240: 1ec6 6a3d 2752 e33b 5846 bcbc d47b 523b
00000250: 9752 9cbc d71b c83c 34dd 62bd 5bf8 cb3c
00000260: 54f5 d63c 54cb c039 7167 603d 541f ce3d
00000270: 5cb6 85bd 0497 60bd 3dbf 893c 139c bd3c
00000280: b291 cdbb 0e48 d73d 8528 f13c 9168 a1bd
00000290: f89e b63c 24c8 67bd 3a25 6e3d 39f0 8f3d
000002a0: 4197 b93d 6573 33bd b4cc 11bd 13d4 29bd
000002b0: e715 563d 287b 8b3a bf0c af3d b512 20bd
000002c0: ade2 a4bc fc25 f8bc 37e4 acbc 522f dcbb
000002d0: 898a ba3d 4242 583d 049a 73bc 95bb 12bd
000002e0: 3b7d 92bc 29a0 993d 490e 293d c740 b63d
000002f0: 936e 8fbd cd5b 2bbd cab1 7b3c d0ea 723c
00000300: 405a 64bd 887c 0c3d dd37 a2bd 9ad3 66bd
00000310: fca8 2abc 4199 4cbb d9c0 53bb 269e 863c
00000320: 7c92 2a3d 4a9e 9e3d acde dfbb a63c c33d
00000330: 2b93 ddbb b681 043c 5400 263d 9fc8 923d
00000340: 4c65 963d 0f1b 283d 1a3a 79bd a6cb cd3d
00000350: 8445 aa3c 6531 4b3d 02ac d9bc 4670 28bd
00000360: 7a7a ca3d c991 4cbb c353 0fbc 40e7 b33d
00000370: f3ca b83b a9e6 18bd 549b 2a3d ff8e 573d
00000380: 064c a8bd f882 11bd 8416 f1bc c40e 49bd
00000390: a10c 35bc 9f78 8a3d e371 be3c a34a f53c
000003a0: 3a8e c13d 2169 76bc 9323 c93d 0d39 8bbd
000003b0: df45 5c3c c67e ac3d f863 6c3d 8855 ebbc
000003c0: 194e 41bc 49a8 303d 96a1 ca3d d3a9 ffbb
000003d0: 4b4c b1bd 7038 923b d1ac 9a3c c9ab 73bc
000003e0: adc3 8a3c d0d9 943c 9807 fabb a887 d43d
000003f0: f17f abbc 2dc9 8bbd 7847 33ba ccf3 10bd

mlp.mlp.2.bias f4 [128]
0.050579727 0.03630135 0.056851555 0.07984693 0.0154721225 -0.016707892 -0.055137377 0.08144365
0.031219797 -0.059939817 0.08780969 0.07747123 0.058973134 -0.0504543 0.018303687 -0.056785055
0.083137535 0.015161112 -0.03575901 -0.082908206 -0.009608254 -0.074067265 0.06973342 -0.08856301
-0.07006498 0.021031985 -0.04867673 0.017122831 0.009091882 -0.05444835 0.070644565 0.027199246
0.006667465 0.07377618 0.030518683 -0.013367133 -0.002042064 -0.011199846 -0.019631943 0.052143127
-0.04295081 0.029524917 0.05133134 0.04653704 -0.053383224 0.05983561 -0.017138526 -0.048343915
0.015071627 -0.0028780443 0.008633082 -0.060726658 -0.018851807 -0.048985813 -0.03115158 0.0019474562
0.11687833 0.04411879 -0.024746949 -0.02836991 -0.027309008 -0.043200117 0.08940805 -0.07683408
0.02896987 0.016803343 0.026766991 0.05422526 0.03914557 0.05150203 -0.023408445 0.02410501
-0.03235776 0.02770529 0.02038191 -0.02632082 0.047630195 -0.044647235 -0.0733717 0.018161874
0.036564756 -0.000120447075 0.0499018 -0.032032628 -0.043704167 -0.060903475 0.07796554 0.064405285
-0.0172525 -0.047060106 0.008129502 -0.042433925 -0.0035434247 0.064069785 0.038078867 -0.046079677
0.042371448 -0.002555687 0.086807854 0.028091658 0.0048906477 0.044633444 0.049874697 -0.03242241
-0.0067407163 0.07812337 -0.0005775789 -0.015576934 -0.026841335 0.023977088 -0.07135866 0.029512193
0.0009084045 -0.07830953 0.06071864 -0.04636196 -0.0099596 0.06967464 0.036009055 0.025878916
0.07405215 -0.019359935 0.016370863 0.0003784922 -0.0018938323 -0.03650531 0.04070112 0.022009466
00000000: b02c 4f3d b9b0 143d 2ddd 683d ca86 a33d
00000010: c97e 7d3c fdde 88bc bbd7 61bd eecb a63d
00000020: a9c0 ff3c 7483 75bd 91d5 b33d 3ca9 9e3d
00000030: d08d 713d 2ba9 4ebd 9df1 953c 7297 68bd
00000040: 0344 aa3d 5066 783c 0a78 12bd c7cb a9bd
00000050: f06b 1dbc 94b0 97bd 65d0 8e3d 8660 b5bd
00000060: 3a7e 8fbd 454b ac3c 4061 47bd 2e45 8c3c
00000070: 1ef6 143c 3c05 5fbd 19ae 903d f4d0 de3c
00000080: c07a da3b f717 973d 5102 fa3c d201 5bbc
00000090: 26d4 05bb 8f7f 37bc 2bd3 a0bc 0894 553d
000000a0: 30ed 2fbd 3dde f13c d040 523d a09d 3e3d
000000b0: 5ea8 5abd 2f16 753d 1866 8cbc 4504 46bd
000000c0: fcee 763c 929d 3cbb c571 0d3c 84bc 78bd
000000d0: 1b6f 9abc 59a5 48bd 9931 ffbc c941 ff3a
000000e0: e85d ef3d e8b5 343d 1dba cabc 0368 e8bc
000000f0: 24b7 dfbc 9bf2 30bd 911b b73d 305b 9dbd
00000100: 3952 ed3c 2aa7 893c 7346 db3c 4e1b 5e3d
00000110: 1b57 203d cbf3 523d 11c3 bfbc df77 c53c
00000120: 9289 04bd 34f6 e23c f7f7 a63c c39e d7bc
00000130: e117 433d 05e0 36bd e743 96bd 36c8 943c
00000140: edc4 153d 8898 fcb8 d465 4c3d a534 03bd
00000150: 2403 33bd ec75 79bd 66ac 9f3d ebe6 833d
00000160: 1d55 8dbc 19c2 40bd 9a31 053c 32cf 2dbd
00000170: cd38 68bb 0537 833d 96f8 1b3d 0bbe 3cbd
00000180: af8d 2d3d 507d 27bb 51c8 b13d 7a20 e63c
00000190: ba41 a03b 8fd1 363d 6949 4c3d 5ccd 04bd
000001a0: 3ae1 dcbb 25ff 9f3d aa68 17ba 6636 7fbc
000001b0: 5ce2 dbbc 996b c43c 7d24 92bd 8ec3 f13c
000001c0: fe21 6e3a bf60 a0bd 1cb4 783d 0ae6 3dbd
000001d0: 972d 23bc 94b1 8e3d 3b7e 133d 0500 d43c
000001e0: a7a8 973d ba98 9ebc 301c 863c 5d70 c639
000001f0: 783a f8ba 9886 15bd 38b6 263d 324d b43c

mlp.mlp.4.weight f4 [13, 128]
-0.1059732 -0.054550726 -0.07151164 0.07685646 0.116758734 -0.101532556 -0.10074331 -0.03215313
-0.06661001 0.12817591 -0.048194394 0.075569816 0.023587214 -0.11046886 -0.06252693 0.07487566
0.11922579 0.06429879 -0.104436986 0.05253827 -0.110260956 0.1114661 -0.11184373 0.06419947
-0.078283295 0.0879388 0.08894774 -0.10697236 0.11627502 0.010287172 0.0018862091 -0.0021998107
-0.0736534 0.06352516 -0.04768066 -0.034830328 -0.09210738 0.06650055 0.003995756 -0.06462924
0.06805688 -0.08000704 0.06311384 0.017242622 -0.082421266 -0.026897985 0.058168754 -0.08423204
0.061321348 -0.100673325 0.09054253 -0.0027410665 -0.09088369 -0.111501314 -0.06806649 -0.07871294
0.0023440036 -0.08514173 0.016931107 -0.07242558 -0.09956328 -0.0112401545 -0.06996147 -8.9868794e-05
0.102674365 0.03490416 0.0471257 -0.058168072 -0.039090056 -0.03924816 -0.09343121 -0.09653416
0.0005905909 -0.103030086 0.027825758 0.04647563 0.005989943 -0.05082178 0.0016412999 0.049390327
-0.08081796 0.06392203 0.10284828 -0.09265655 -0.11023256 -0.11175277 0.06855984 0.10363536
0.069401756 -0.044387497 0.060970135 0.09946864 0.039596938 -0.06669651 -0.043789998 -0.065901175
-0.03519977 0.10911879 0.033672143 0.045709774 -0.0020584061 -0.0019282709 0.04701698 -0.007354081
0.061400402 -0.075314805 -0.0998431 -0.007482403 -0.09912611 0.11204821 0.06803211 0.036805004
-0.07293953 -0.06466464 0.121169195 -0.10177836 0.02896833 -0.022258513 0.045520738 -0.0043764184
-0.099205986 0.11138312 -0.046019107 -0.05177241 -0.016379405 -0.018086515 -0.007061281 -0.049411427
0.001404697 -0.03155198 -0.06267091 0.05287351 -0.073856704 0.09554964 -0.041270692 0.037733037
-0.0036087986 -0.038851663 0.050738756 0.032479934 -0.049098864 0.048345514 0.07292076 0.027833508
0.027179483 -0.09122026 0.07751488 -0.07252234 0.0078113046 -0.070610546 -0.002785066 -0.018876811
0.075195126 -0.102360055 -0.052603975 0.045851886 -0.092174284 -0.08582119 -0.058942106 -0.062304143
0.000620474 -0.027977945 -0.035201453 -0.035447966 0.08450145 -0.10330322 0.10460204 0.11571902
0.043090824 0.084251165 0.016019348 -0.061071243 -0.014204401 -0.023428801 0.003338984 -0.008530956
0.023902887 0.012046445 -0.058736287 -0.025820179 0.081988 0.030012973 -0.08398224 0.008186382
-0.072088525 0.009461189 0.039594572 -0.07705225 0.10371383 0.03286762 -0.0608072 0.016270401
0.034955237 -0.04055739 -0.059928957 0.063165545 0.07604044 0.09195044 -0.02485995 -0.0012816334
-0.07792446 0.08748653 -0.016627138 -0.06741391 -0.037121795 -0.032133356 -0.031118996 -0.010875151
-0.041071896 -0.07335059 -0.030627802 -0.017373646 0.092400365 0.060930777 0.012644969 -0.037212677
-0.07106463 0.10512705 0.0019100645 -0.017446313 -0.038659316 0.062117316 0.065752044 0.08876554
0.09080273 -0.041558802 -0.10014293 0.06952064 -0.0028650681 0.08116636 0.03292585 0.08491567
0.057284936 0.053748865 0.012218222 0.052671816 -0.016795447 0.08327196 0.030712027 0.0054698666
-0.00016469485 -0.012241811 -0.102783345 -0.056300297 0.10628664 0.001126463 0.058376424 -0.104986005
0.10574603 -0.11801756 -0.009508919 -0.011435258 0.07310399 0.034108303 0.042469803 0.065055706
00000000: 7a08 d9bd 9570 5fbd b274 92bd eb66 9d3d
00000010: 341f ef3d 4df0 cfbd 8252 cebd 00b3 03bd
00000020: d46a 88bd 8c40 033e 7c67 45bd 59c4 9a3d
00000030: f939 c13c 7f3d e2bd 1e0e 80bd 6958 993d
00000040: a72c f43d 16af 833d 0fe3 d5bd 5e32 573d
00000050: 7fd0 e1bd 5748 e43d 530e e5bd 037b 833d
00000060: fe52 a0bd 4219 b43d 3c2a b63d 5314 dbbd
00000070: 9921 ee3d 878b 283c ad3a f73a b32a 10bb
00000080: 98d7 96bd 7b19 823d cc4c 43bd 3faa 0ebd
00000090: cba2 bcbd 7131 883d d5ee 823b 565c 84bd
000000a0: 6861 8b3d bbda a3bd d441 813d 6640 8d3c
000000b0: 7bcc a8bd 2a59 dcbc 5c42 6e3d d981 acbd
000000c0: 182c 7b3d d12d cebd 5d6e b93d 77a3 33bb
000000d0: 3a21 babd cd5a e4bd 7266 8bbd 4034 a1bd
000000e0: db9d 193b ca5e aebd 1bb3 8a3c dd53 94bd
000000f0: d5e7 cbbd a028 38bc f647 8fbd f177 bcb8
00000100: f046 d23d aaf7 0e3d e106 413d a541 6ebd
00000110: e51c 20bd aec2 20bd dd58 bfbd b4b3 c5bd
00000120: e2d1 1a3a 7001 d3bd d8f2 e33c 3b5d 3e3d
00000130: 4947 c43b 802a 50bd e320 d73a 834d 4a3d
00000140: e383 a5bd 8ee9 823d 1ea2 d23d b8c2 bdbd
00000150: 9cc1 e1bd a3de e4bd 1a69 8c3d c73e d43d
00000160: 8222 8e3d aacf 35bd d2bb 793d 37b6 cb3d
00000170: 6630 223d 2e98 88bd 245d 33bd 32f7 86bd
00000180: a22d 10bd ac79 df3d cdeb 093d 2c3a 3b3d
00000190: 53e6 06bb 09be fcba e094 403d 81fa f0bb
000001a0: fd7e 7b3d a63e 9abd 8a7a ccbd f22e f5bb
000001b0: a102 cbbd 8879 e53d 6b54 8b3d d8c0 163d
000001c0: 5261 95bd e56e 84bd 8e27 f83d 2c71 d0bd
000001d0: fe4e ed3c 7c57 b6bc f473 3a3d 0f68 8fbb
000001e0: 822c cbbd d51c e43d 887e 3cbd 4e0f 54bd
000001f0: 1a2e 86bc 2c2a 94bc 5162 e7bb a363 4abd
00000200: cf1d b83a a63c 01bd 9b59 80bd e591 583d
00000210: 2f42 97bd 88af c33d 750b 29bd f58d 1a3d
00000220: 9881 6cbb ec22 1fbd 71d3 4f3d ae09 053d
00000230: e41b 49bd f205 463d 7b57 953d 1903 e43c
00000240: 82a7 de3c b0d1 babd 1fc0 9e3d 9886 94bd
00000250: f9f5 ff3b 439c 90bd a785 36bb 8ba3 9abc
00000260: e7ff 993d 26a2 d1bd 4477 57bd 30cf 3b3d
00000270: dfc5 bcbd 05c3 afbd 476d 71bd a132 7fbd
00000280: 4ea7 223a 0132 e5bc 662f 10bd e331 11bd
00000290: 190f ad3d a390 d3bd 9839 d63d 18fe ec3d
000002a0: 0180 303d e08b ac3d 023b 833c d725 7abd
000002b0: 93b9 68bc c2ed bfbc dbd2 5a3b 6cc5 0bbc
000002c0: fdcf c33c 745e 453c 7695 70bd d784 d3bc
000002d0: 53e9 a73d c4dd f53c e1fe abbd 2d20 063c
000002e0: 26a3 93bd 1a03 1b3c eb2d 223d 92cd 9dbd
000002f0: eb67 d43d 33a0 063d f810 79bd 8149 853c
00000300: 392d 0f3d 811f 26bd 1178 75bd f05c 813d
00000310: 17bb 9b3d 8350 bc3d 18a7 cbbc 7bfc a7ba
00000320: dc96 9fbd 232c b33d a335 88bc 4e10 8abd
00000330: 060d 18bd 449e 03bd 44ed febc b02d 32bc
00000340: 013b 28bd d638 96bd 28e7 fabc 2d53 8ebc
00000350: 673c bd3d 8d92 793d d82c 4f3c 526c 18bd
00000360: 558a 91bd da4c d73d 215b fa3a 92eb 8ebc
00000370: 3b59 1ebd ba6e 7e3d 02a9 863d b5ca b53d
00000380: c8f6 b93d 9039 2abd bd17 cdbd d660 8e3d
00000390: dec3 3bbb 8c3a a63d 42dd 063d 44e8 ad3d
000003a0: 9ca3 6a3d c527 5c3d f02e 483c 67be 573d
000003b0: 9b96 89bc 7d8a aa3d ca97 fb3c 913c b33b
000003c0: f0b1 2cb9 e091 48bc 1380 d2bd 249b 66bd
000003d0: cfac d93d d3a5 933a 1e1c 6f3d e702 d7bd
000003e0: 6091 d83d 31b3 f1bd 4ccb 1bbc f35a 3bbc
000003f0: 8bb7 953d 26b5 0b3d d1f4 2d3d ed3b 853d

mlp.mlp.4.bias f4 [13]
0.007337687 -0.08881196 0.017709143 -0.022824118 -0.004478311 0.08345355 -0.0011104386 -0.011724089
-0.06674148 0.008985547 -0.08191514 0.028748052 -0.069450505
00000000: fb70 f03b 0be3 b5bd c412 913c a5f9 babc
00000010: ccbe 92bb b2e9 aa3d 238c 91ba 6516 40bc
00000020: c2af 88bd 1e38 133c 20c3 a7bd 0981 eb3c
00000030: 113c 8ebd

exp_avg f4 [128, 15]
-5.1469607 2.989552 -0.5943886 -0.037267458 0.004164338 -0.015203313 -0.027822103 -0.02739813
-0.021254752 0.053057045 0.033784915 -0.022987474 -0.06280434 0.0 0.01179923 1.5207068
-0.35230732 0.22245786 0.0050286883 -0.02568324 0.016605983 -0.04159074 0.0033525552 -0.024309492
0.006592188 0.0008177187 -0.00393737 -0.0065736007 0.0 0.017702347 1.8408122 -0.3894793
0.13935007 0.004407441 -0.019658055 0.008005297 -0.028161852 0.018079191 -0.017950915 0.008204448
0.0011213159 -0.002542997 -0.004214944 0.0 0.013581262 0.9610549 -0.6422781 0.18596831
-0.0023294948 -0.03472211 -0.007509196 -0.07739735 0.008889117 -0.005026421 0.02270817 -0.0023811474
0.0030586608 -0.035948776 0.0 0.005392659 -1.9096382 2.2311912 -0.36406916 -0.025378997
0.034778908 -0.01029032 0.027612882 -0.0574138 -0.01452063 0.055043112 0.011132139 -0.009101513
-0.029036054 0.0 0.007775267 1.6420134 -2.125723 0.11942705 -0.015061696 -0.044902507
-0.03903658 -0.121159256 0.06673403 0.033148557 0.03981126 -0.015728619 0.01660321 -0.07761313
0.0 -0.015083103 4.38901 -2.5833142 0.31805724 -0.0028958323 -0.0578432 -0.0070836428
-0.11669507 0.0893662 -0.005981943 0.034418534 -0.010211384 0.0062541007 -0.053283814 0.0
0.013026484 3.0472853 2.173925 0.18268168 0.030845152 0.031409767 0.07445612 0.10730672
-0.10775026 -0.08649066 -0.045461968 0.035527322 -0.024721777 0.091160126 0.0 0.042859398
1.1476152 1.9895982 0.101808414 0.025439747 0.02771464 0.06256538 0.097140886 -0.0836518
-0.0706978 -0.038056824 0.027274128 -0.022560026 0.08124402 0.0 0.034066863 5.320591
-3.7805634 0.8624849 0.018776746 -0.0033465165 -0.05141838 0.0036399888 -0.1424627 0.0012068719
0.047628038 -0.069022134 0.019252725 0.027557705 0.0 -0.006834959 2.4068904 -2.57054
0.4241365 0.0068572033 -0.010507466 -0.04525326 0.010586425 -0.016587077 0.0158239 0.039950974
-0.05749625 0.008454827 0.02174311 0.0 -0.004064886 0.14047688 0.26896447 -0.005839589
-0.011984812 0.015465147 -0.01839989 0.016315551 -0.036330305 -0.0040883175 0.039585114 -0.00932529
-0.003147364 -0.009850938 0.0 0.0033607252 2.1491637 -0.9681601 0.1799028 0.0035733653
-0.02394601 0.00978433 -0.035716183 0.03293426 -0.017935589 0.00834487 9.8853474e-05 -0.002999426
-0.008599301 0.0 0.014551054 0.8531187 0.676083 0.13045898 0.012996082 -0.00074271654
0.033034697 0.023926776 -0.017242821 -0.040344015 -0.010053832 0.014718288 -0.011562246 0.030222502
0.0 0.024449646 3.126743 -0.8234306 0.22410427 0.009118615 -0.023459433 0.022856845
-0.024292102 0.037928034 -0.031728253 0.0053482684 0.0032995772 -0.006062556 0.0045934757 0.0
0.023843573 -3.942213 3.241372 -0.63648134 -0.03814163 0.04150544 -0.0033143123 0.029102903
-0.029123504 -0.016267959 0.056935675 0.028639408 -0.018625326 -0.042779308 0.0 0.012507372
-1.7850641 1.8238605 -0.32556146 -0.029196732 0.032982387 -0.017296914 0.026689865 -0.052463245
-0.0116951205 0.061628457 0.005058614 -0.011884551 -0.028786378 0.0 0.009109267 -8.963485
00000000: e7b3 a4c0 d254 3f40 da29 18bf c3a5 18bd
00000010: 0075 883b 5117 79bc 2eeb e3bc 0b72 e0bc
00000020: 721e aebc 5852 593d 0d62 0a3d 3a50 bcbc
00000030: 909f 80bd 0000 0000 8f51 413c 85a6 c23f
00000040: a061 b4be fecb 633e b2c7 a43b a865 d2bc
00000050: 4509 883c 0d5b 2abd 8bb6 5b3b b324 c7bc
00000060: 4803 d83b 2c5c 563a 0e05 81bb 5c67 d7bb
00000070: 0000 0000 8304 913c bc9f eb3f d569 c7be
00000080: c9b1 0e3e 4b6c 903b ee09 a1bc a628 033c
00000090: afb3 e6bc d01a 943c cc0d 93bc f36b 063c
000000a0: 1ef9 923a 69a8 26bb 831d 8abb 0000 0000
000000b0: f183 5e3c b207 763f 566c 24bf 7a6e 3e3e
000000c0: 70aa 18bb c538 0ebd b40f f6bb 8082 9ebd
000000d0: a9a3 113c adb4 a4bb 7c06 ba3c 060d 1cbb
000000e0: d073 483b 063f 13bd 0000 0000 e7b4 b03b
000000f0: 066f f4bf d6cb 0e40 4667 babe 9de7 cfbc
00000100: 5474 0e3d bb98 28bc 6934 e23c bc2a 6bbd
00000110: f0e7 6dbc e374 613d 9363 363c 831e 15bc
00000120: 05dd edbc 0000 0000 abc7 fe3b 7f2d d23f
00000130: d80b 08c0 2b96 f43d 55c5 76bc b1eb 37bd
00000140: d2e4 1fbd 5822 f8bd daab 883d c8c6 073d
00000150: 2211 233d 4ed9 80bc 7403 883c a2f3 9ebd
00000160: 0000 0000 1f1f 77bc c572 8c40 0555 25c0
00000170: 66d8 a23e 01c8 3dbb feec 6cbd e71d e8bb
00000180: d3fd eebd a005 b73d 2d04 c4bb 73fa 0c3d
00000190: a64d 27bc 33ef cc3b 2140 5abd 0000 0000
000001a0: 096d 553c b906 4340 9621 0b40 e810 3b3e
000001b0: f9ae fc3c 87a7 003d 737c 983d a0c3 db3d
000001c0: 2bac dcbd 0422 b1bd 5436 3abd 1985 113d
000001d0: 5385 cabc 29b2 ba3d 0000 0000 568d 2f3d
000001e0: 0ee5 923f 27ab fe3f ee80 d03d 0467 d03c
000001f0: d009 e33c 4722 803d cdf1 c63d a351 abbd
00000200: 02ca 90bd 79e1 1bbd fe6d df3c cecf b8bc
00000210: 4463 a63d 0000 0000 b289 0b3d 4842 aa40
00000220: c0f4 71c0 cfcb 5c3f b1d1 993c 3b51 5bbb
00000230: 149c 52bd e18c 6e3b bee1 11be e72f 9e3a
00000240: 9e15 433d 7a5b 8dbd e4b7 9d3c b2c0 e13c
00000250: 0000 0000 cbf7 dfbb 7e0a 1a40 ba83 24c0
00000260: 6b28 d93e 64b2 e03b 8227 2cbc 7b5b 39bd
00000270: af72 2d3c 9fe1 87bc 20a1 813c a2a3 233d
00000280: 3081 6bbd 1d86 0a3c 9b1e b23c 0000 0000
00000290: bc32 85bb 2cd9 0f3e b6b5 893e 065a bfbb
000002a0: f25b 44bc 8761 7d3c 5ebb 96bc 31a8 853c
000002b0: 16cf 14bd 4bf7 85bb 0024 223d 1ac9 18bc
000002c0: 0144 4ebb d465 21bc 0000 0000 9d3f 5c3b
000002d0: e68b 0940 57d9 77bf 7138 383e 1f2f 6a3b
000002e0: 6c2a c4bc 744e 203c 224b 12bd 13e6 063d
000002f0: a8ed 92bc ecb8 083c 8e4f cf38 0592 44bb
00000300: 15e4 0cbc 0000 0000 8b67 6e3c fd65 5a3f
00000310: c713 2d3f 0a97 053e 85ed 543c ddb2 42ba
00000320: 644f 073d 1602 c43c d140 8dbc c43f 25bd
00000330: d4b8 24bc f924 713c 936f 3dbc 2e95 f73c
00000340: 0000 0000 a04a c83c 8f1c 4840 59cc 52bf
00000350: 977b 653e 3e66 153c ff2d c0bc 473e bb3c
00000360: 3b00 c7bc 6d5a 1b3d 7cf5 01bd 8740 af3b
00000370: b83d 583b 68a8 c6bb de84 963b 0000 0000
00000380: 9953 c33c 384d 7cc0 a472 4f40 71f0 22bf
00000390: 663a 1cbd 9c01 2a3d ef34 59bb 3669 ee3c
000003a0: 6a94 eebc 6244 85bc 6235 693d 319d ea3c
000003b0: 2494 98bc 5b39 2fbd 0000 0000 b8eb 4c3c
000003c0: fb7c e4bf 4374 e93f feaf a6be fc2d efbc
000003d0: 8a18 073d 42b2 8dbc b4a4 da3c b3e3 56bd
000003e0: e49c 3fbc 1f6e 7c3d bbc2 a53b 6bb7 42bc
000003f0: 69d1 ebbc 0000 0000 093f 153c 6f6a 0fc1

exp_avg_sq f4 [128, 15]
7384.8794 1340.5103 128.81012 0.9279717 2.2701106 0.14574054 0.061753932 1.1501203
0.31689605 0.34339818 0.020717824 0.022328192 0.6416823 0.0 0.00012661982 9341.177
2092.0906 658.6128 320.94897 772.2514 622.1694 936.6791 275.19092 1316.715
25.164175 459.76202 395.1474 438.84457 0.0 0.0042544245 3335.4573 763.1647
181.03441 92.68479 213.35454 172.52838 267.4823 78.075134 372.0713 6.6322107
125.35831 109.67766 122.92041 0.0 0.0024343496 443.48117 76.457146 0.9596766
1.9094468 1.2165635 0.86403704 3.6123447 0.939068 4.198616 0.029111294 0.40706834
0.85995966 0.86324805 0.0 0.00021193444 204945.9 27876.943 21843.12 9986.3955
20791.924 2168.5344 7970.873 2303.92 16446.75 12787.452 16256.189 2462.7505
16988.557 0.0 0.00588265 105.51361 18.544786 0.43786728 0.3950255 0.5067409
0.4001656 0.9441657 0.28333953 1.1934505 0.009397689 0.22697629 0.26896593 0.30674767
0.0 0.0003009207 10930.6 2342.678 820.2066 395.64642 960.77814 773.7293
1158.3018 339.29788 1631.141 31.54576 573.37494 491.09433 544.4696 0.0
0.0045761443 7591.943 1627.8677 372.91296 184.47589 436.69727 352.267 536.11707
158.34982 750.70996 14.030507 258.76877 223.81726 249.5629 0.0 0.006868809
6676.425 1415.166 421.64346 203.67368 492.2435 396.45724 593.666 174.83658
835.8381 16.305649 294.18393 252.02797 278.80612 0.0 0.0026585723 185204.25
26718.2 18402.537 8279.257 17148.857 1752.9397 6364.2876 1851.3359 13473.072
10456.891 13171.249 1975.0099 13910.679 0.0 0.0062051807 100420.81 13903.586
10739.071 4961.9565 10302.124 1071.0267 3904.0374 1139.6951 8132.2275 6334.5986
8009.585 1214.1799 8401.044 0.0 0.0025456042 24718.824 4379.3657 1404.0057
548.4399 1049.7039 91.40895 220.9212 90.83641 767.8627 618.89264 643.4696
92.729195 783.9581 0.0 0.00077699526 3079.911 672.3464 164.16348 82.19549
192.30484 155.17592 237.60794 69.88955 332.10272 6.13892 113.69897 98.826706
110.11677 0.0 0.001061513 8088.5493 1784.8179 577.394 279.10587 675.3789
543.7513 816.2211 240.18333 1148.576 22.107128 402.6605 345.26932 383.23978
0.0 0.012174089 5928.1685 1065.2677 378.07712 192.68521 392.03787 47.71358
153.78935 48.11284 327.22076 229.69943 284.78873 48.126213 306.2123 0.0
0.00093290716 211351.31 29249.924 22054.18 10030.346 20844.996 2149.6548 7878.553
2274.818 16436.066 12749.996 16165.406 2432.1133 16968.422 0.0 0.014109497
220048.36 30695.258 22729.81 10314.519 21431.273 2211.2798 8095.435 2341.4258
16897.844 13114.148 16617.37 2501.5867 17445.607 0.0 0.008759025 265735.1
00000000: 09c7 e645 5490 a744 64cf 0043 8e8f 6d3f
00000010: 7e49 1140 023d 153e b1f1 7c3d 2437 933f
00000020: 3340 a23e e3d1 af3e 6db8 a93c 9de9 b63c
00000030: 4b45 243f 0000 0000 40c5 0439 b5f4 1146
00000040: 73c1 0245 38a7 2444 7879 a043 1710 4144
00000050: d78a 1b44 762b 6a44 7098 8943 e196 a444
00000060: 3b50 c941 8ae1 e543 de92 c543 1b6c db43
00000070: 0000 0000 b368 8b3b 5177 5045 8aca 3e44
00000080: cf08 3543 9d5e b942 c35a 5543 4487 2c43
00000090: bcbd 8543 7826 9c42 2009 ba43 123b d440
000000a0: 74b7 fa42 f65a db42 40d7 f542 0000 0000
000000b0: 9c89 1f3b 97bd dd43 0fea 9842 5ead 753f
000000c0: c168 f43f 5ab8 9b3f 8831 5d3f a830 6740
000000d0: c366 703f 105b 8640 cf7a ee3c 436b d03e
000000e0: 5126 5c3f d3fd 5c3f 0000 0000 b83a 5e39
000000f0: 7a24 4848 e3c9 d946 3da6 aa46 9509 1c46
00000100: d96f a246 8d88 0745 fc16 f945 b8fe 0f45
00000110: 807d 8046 cfcd 4746 c200 7e46 02ec 1945
00000120: 1db9 8446 0000 0000 3fc3 c03b f806 d342
00000130: b95b 9441 2430 e03e c840 ca3e c6b9 013f
00000140: 81e2 cc3e d8b4 713f e111 913e fcc2 983f
00000150: c4f8 193c 796c 683e e7b5 893e 080e 9d3e
00000160: 0000 0000 e5c4 9d39 66ca 2a46 d96a 1245
00000170: 390d 4d44 bed2 c543 cd31 7044 ad6e 4144
00000180: a8c9 9044 21a6 a943 83e4 cb44 b75d fc41
00000190: ff57 0f44 138c f543 0e1e 0844 0000 0000
000001a0: 7bf3 953b 8b3f ed45 c47b cb44 dc74 ba43
000001b0: d479 3843 4059 da43 2d22 b043 7e07 0644
000001c0: 8e59 1e43 70ad 3b44 f57c 6041 6762 8143
000001d0: 38d1 5f43 1a90 7943 0000 0000 bf13 e13b
000001e0: 66a3 d045 50e5 b044 5dd2 d243 76ac 4b43
000001f0: 2b1f f643 873a c643 a06a 1444 2ad6 2e43
00000200: a3f5 5044 f871 8241 8b17 9343 2907 7c43
00000210: 2f67 8b43 0000 0000 713b 2e3b 10dd 3448
00000220: 66bc d046 13c5 8f46 075d 0146 b7f9 8546
00000230: 121e db44 4de2 c645 c06a e744 4a84 5246
00000240: 9063 2346 ffcc 4d46 51e0 f644 b75a 5946
00000250: 0000 0000 d454 cb3b 6822 c447 583e 5946
00000260: 49cc 2746 a70f 9b45 7ff8 2046 dbe0 8544
00000270: 9900 7445 3e76 8e44 d221 fe45 caf4 c545
00000280: ae4c fa45 c2c5 9744 2d44 0346 0000 0000
00000290: 27d4 263b a61d c146 edda 8845 2f80 af44
000002a0: 271c 0944 8636 8344 62d1 b642 d4eb 5c43
000002b0: 3eac b542 36f7 3f44 21b9 1a44 0ede 2044
000002c0: 5975 b942 52fd 4344 0000 0000 45af 4b3a
000002d0: 937e 4045 2b16 2844 da29 2443 1764 a442
000002e0: 0a4e 4043 092d 1b43 a29b 6d43 73c7 8b42
000002f0: 260d a643 0872 c440 df65 e342 46a7 c542
00000300: c93b dc42 0000 0000 7722 8b3a 65c4 fc45
00000310: 2c1a df44 3759 1044 8d8d 8b43 40d8 2844
00000320: 15f0 0744 270e 4c44 ef2e 7043 6f92 8f44
00000330: 66db b041 8b54 c943 79a2 ac43 b19e bf43
00000340: 0000 0000 d575 473c 5941 b945 9128 8544
00000350: df09 bd43 6aaf 4043 d904 c443 b5da 3e42
00000360: 13ca 1943 8c73 4042 429c a343 0eb3 6543
00000370: f564 8e43 3e81 4042 2d1b 9943 0000 0000
00000380: 578e 743a d465 4e48 d983 e446 5c4c ac46
00000390: 62b9 1c46 fed9 a246 7a5a 0645 6d34 f645
000003a0: 172d 0e45 2268 8046 fc37 4746 a095 7c46
000003b0: d001 1845 d890 8446 0000 0000 852b 673c
000003c0: 17e4 5648 84ce ef46 9f93 b146 132a 2146
000003d0: 8c6e a746 7a34 0a45 7bfb fc45 d056 1245
000003e0: b003 8446 98e8 4c46 bdd2 8146 6359 1c45
000003f0: 374b 8846 0000 0000 0382 0f3c e3c0 8148

exp_avg f4 [128]
-0.06343072 0.0033385733 -0.002097546 -0.011946417 0.046723753 -0.011977953 0.0028634977 0.0074228137
0.01597016 0.24384798 0.16809735 0.06427145 0.0050883517 0.0005020225 0.01050673 -0.017286545
0.04901573 -0.19098732 0.101594955 -0.10287958 -0.008832962 -0.0021919562 0.1285729 0.0008961897
-0.06812808 -0.052187596 0.0028354004 -0.069934875 0.008747125 -0.08972706 -0.033668373 0.019772539
-0.039112017 -0.24027097 -0.06209354 0.005887516 0.1359871 0.010909054 -0.004105176 -0.15426481
0.14747222 0.10778638 0.124732465 0.0812687 0.015244812 -0.001507337 0.011687711 -0.021223804
0.0824731 0.0012815277 0.0025483367 -0.0020756822 -0.073919035 -0.021640273 -0.14695394 0.11291805
-0.0035083545 0.16389889 0.010251655 0.013620215 -0.0042624786 -0.13716023 0.013646908 0.020637056
0.014672478 0.25661758 0.0013759212 0.08684077 -0.39056075 0.014618205 -0.09789908 0.003180832
0.0825012 -0.049839884 0.013270744 0.0093488535 0.022257583 0.087944776 -0.0039484515 -0.043304186
-0.023102334 0.17992263 -0.13571927 -0.0820079 0.17168686 0.0008375402 0.06363903 0.0035892848
0.031851076 0.0093632 0.005729732 -0.07274608 0.0020005002 -0.024880145 0.0042867963 0.014831108
0.012628091 -0.08563302 0.08983272 -0.023039065 0.05959783 0.14155601 -0.008734108 -0.008339015
0.02225606 0.008760055 -0.11392638 0.017062025 -0.119568564 0.018043397 0.022388967 0.0066225627
-0.014575647 0.0045366003 0.048129965 0.009798893 0.0024915612 0.008213707 0.054908857 0.035216525
0.021890478 0.040757287 0.005670292 0.07430757 0.012336615 0.0024322749 0.0041674674 0.0069974447
00000000: f7e7 81bd f7cb 5a3b fb76 09bb e8ba 43bc
00000010: 6861 3f3d 2d3f 44bc 85a9 3b3b 133b f33b
00000020: dad3 823c 49b3 793e b621 2c3e c0a0 833d
00000030: 30bc a63b 299a 033a 6b24 2c3c 839c 8dbc
00000040: b8c4 483d 2e92 43be 0411 d03d 87b2 d2bd
00000050: 21b8 10bc eca6 0fbb 9da8 033e 46ee 6a3a
00000060: bc86 8bbd a9c2 55bd 20d2 393b 043a 8fbd
00000070: 1a50 0f3c d2c2 b7bd d9e7 09bd 05fa a13c
00000080: ec33 20bd 9809 76be cc55 7ebd 10ec c03b
00000090: 3440 0b3e e4bb 323c b684 86bb 98f7 1dbe
000000a0: f502 173e 1bbf dc3d bc73 ff3d 3470 a63d
000000b0: 60c5 793c d691 c5ba d07d 3f3c 8bdd adbc
000000c0: a8e7 a83d eff8 a73a ff01 273b 2b08 08bb
000000d0: dd62 97bd f146 b1bc 187b 16be 9441 e73d
000000e0: 6cec 65bb 1cd5 273e 8ff6 273c 5227 5f3c
000000f0: 43ac 8bbb bb73 0cbe 4897 5f3c 0b0f a93c
00000100: d564 703c 6163 833e 4158 b43a 93d9 b13d
00000110: 94f7 c7be 3281 6f3c 507f c8bd 8175 503b
00000120: 64f6 a83d e824 4cbd 896d 593c ef2b 193c
00000130: 8955 b63c 641c b43d 0362 81bb bb5f 31bd
00000140: 1b41 bdbc a33d 383e fef9 0abe c2f3 a7bd
00000150: aece 2f3e 5f8e 5b3a 2e55 823d 353a 6b3b
00000160: 4676 023d 1b68 193c 7ac0 bb3b e6fb 94bd
00000170: d31a 033b 72d1 cbbc 4178 8c3b 2dfe 723c
00000180: 0de6 4e3c 5d60 afbd 38fa b73d 6cbc bcbc
00000190: db1c 743d 0ff4 103e 8119 0fbc 5da0 08bc
000001a0: 5752 b63c 5586 0f3c 3c52 e9bd a9c5 8b3c
000001b0: 5de0 f4bd bfcf 933c 1169 b73c 1502 d93b
000001c0: b2ce 6ebc c3a7 943b ed23 453d 898b 203c
000001d0: 7649 233b c992 063c 1ce8 603d 343f 103d
000001e0: a953 b33c 1df1 263d dbcd b93b 912e 983d
000001f0: 831f 4a3c cd66 1f3b 408f 883b d24a e53b

exp_avg_sq f4 [128]
0.020557443 0.6455646 0.29961863 0.0069341906 2.0327091 0.054082874 0.5833314 0.7591085
0.27152896 1.5042932 0.89608735 0.076243885 0.1191705 1.1233196 0.059816007 2.574406
2.4275353 2.3417315 1.6453784 5.26848 0.23493208 0.33831787 4.7742724 0.6186765
4.1909056 0.5055151 0.30197453 1.9828578 0.45017186 2.0426137 0.063551776 0.25749955
5.134545 0.033497915 3.1180067 0.51791567 0.49650845 0.1718324 0.16802028 0.59304535
0.43934965 0.3611881 1.3590536 0.09483569 0.46767974 0.16361356 0.50845677 0.2697585
2.3574805 1.464211 0.36743984 1.3424734 0.8521409 0.25712702 0.05634966 0.20356204
0.24469814 0.29939827 0.63161004 0.43154296 0.3885578 1.3632888 0.29711682 2.8017132
0.4008948 2.132998 0.112740815 0.91019547 3.2526598 0.4162587 0.03776961 0.21108694
2.1894262 0.022255762 0.26573247 0.3517533 0.684658 2.2922263 0.23673007 0.21238069
0.3761152 5.1014557 0.20295021 0.07713995 0.05702792 0.28393745 0.5416624 0.9022854
6.406726 0.19362402 0.31460524 3.023732 0.3406402 0.44587913 0.4468825 0.3888161
1.341697 1.6739422 2.650527 0.083052434 0.026666284 0.6442167 0.37564558 2.1661007
0.32448646 0.44212902 0.027185233 1.0291215 1.6555624 0.01756166 3.1918314 0.30391482
0.06753006 0.3486467 2.5257552 0.17584163 0.27061263 0.3450775 0.90053153 0.35997704
0.77972287 1.0379522 0.36161548 2.4884493 0.793244 0.026634581 0.061428238 0.27164206
00000000: 1568 a83c b943 253f 9d67 993e 3538 e33b
00000010: e817 0240 0186 5d3d 3555 153f ef54 423f
00000020: d805 8b3e ae8c c03f fb65 653f c125 9c3d
00000030: aa0f f43d f0c8 8f3f a101 753d 11c3 2440
00000040: bd5c 1b40 eede 1540 c29b d23f 6397 a840
00000050: 0992 703e 0038 ad3e d7c6 9840 9561 1e3f
00000060: e61b 8640 7069 013f 689c 9a3e 49ce fd3f
00000070: ed7c e63e 2fba 0240 6f27 823d fbd6 833e
00000080: 314e a440 1c35 093d 6c8d 4740 1f96 043f
00000090: 5b36 fe3e d5f4 2f3e 820d 2c3e d2d1 173f
000000a0: 70f2 e03e a6ed b83e 78f5 ad3f 3739 c23d
000000b0: b873 ef3e 508a 273e 392a 023f c91d 8a3e
000000c0: f6e0 1640 446b bb3f 1321 bc3e 2bd6 ab3f
000000d0: e825 5a3f 27a6 833e e7ce 663d 9172 503e
000000e0: 2692 7a3e bb4a 993e 32b1 213f 33f3 dc3e
000000f0: 0cf1 c63e 3f80 ae3f b21f 983e 454f 3340
00000100: 1542 cd3e 0a83 0840 a8e4 e63d 9202 693f
00000110: 942b 5040 dc1f d53e 4eb4 1a3d 2d27 583e
00000120: 8f1f 0c40 b751 b63c 160e 883e 0219 b43e
00000130: bf45 2f3f d6b3 1240 5e69 723e 537a 593e
00000140: 2c92 c03e 203f a340 2ed2 4f3e 8dfb 9d3d
00000150: 1c96 693d 4060 913e 63aa 0a3f 2dfc 663f
00000160: e603 cd40 6045 463e f013 a13e d384 4140
00000170: 6468 ae3e 454a e43e c8cd e43e e712 c73e
00000180: babc ab3f bd43 d63f 3ca2 2940 6517 aa3d
00000190: 4073 da3c 63eb 243f 9e54 c03e 65a1 0a40
000001a0: 1723 a63e bc5e e23e 91b3 de3c 41ba 833f
000001b0: 78e9 d33f 78dd 8f3c f746 4c40 b99a 9b3e
000001c0: 334d 8a3d d281 b23e f9a5 2140 d40f 343e
000001d0: bd8d 8a3e 00ae b03e 3c89 663f e94e b83e
000001e0: eb9b 473f 9edb 843f aa25 b93e c142 1f40
000001f0: 0a12 4b3f c430 da3c 2d9c 7b3d ab14 8b3e

exp_avg f4 [128, 128]
0.46308836 5.0269596e-06 0.00016652905 4.1554427e-05 2.9504135 0.00040482718 -2.8207985e-05 -0.05389869
-0.020276392 1.8357543 2.2301705 1.9278104 -0.00024771626 -0.0012183804 -0.00060119794 2.5199437
2.5203385 2.6473567 0.3683347 0.636155 0.0005684407 -0.058025878 0.741806 -0.024464961
-0.13429095 2.9196522 -9.3032475e-05 2.6445174 0.00022228257 1.3127648 1.4210538 -0.00065935514
1.2628382 1.3819091 0.73271966 0.000115895986 1.1518596 -0.0145745855 -1.7143189e-23 2.4551392
2.0700896 0.90004635 0.7708696 0.15202631 -0.00066169066 -0.00034378254 5.0560036e-05 -5.585242e-07
2.986504 0.36905053 -2.2220895e-06 -0.027710536 -0.5126455 0.0632361 -0.054869976 0.4429321
1.4690557e-05 0.9100118 -0.0033592898 0.00010446866 0.00029506852 0.3218581 -0.0011900722 1.2341099
-0.0003806069 3.6258185 1.9660149e-05 1.1404779 -0.5684645 -0.0016879237 0.6779012 -0.0012703828
3.4979212 0.046798363 -0.0022712657 3.055968e-05 -0.0013821657 1.059409 -0.0039769732 3.3901415
0.969445 2.5472422 -0.06334901 2.1673884 1.4524828 -0.003025524 1.9581189 4.8038295e-05
-0.17067128 -8.399804e-05 -0.0010934339 1.8277147 -0.062199917 1.9017787 -0.0009982737 -0.01511314
2.4402574e-05 2.4702966 2.351454 0.00041990535 1.73772 0.7676208 0.39635384 1.9039202
-0.0027114735 6.101243e-07 0.30339637 9.491232e-05 0.15868741 -0.00092801906 2.1000838 5.444699e-25
-0.0057980325 6.910467e-08 2.1661458 -0.0033963942 6.2620486e-05 -0.004032332 0.21456172 2.3696294
-0.0015863043 0.87047124 -8.906481e-06 1.1480539 0.00020059402 -6.11101e-05 -0.00028537813 -0.0013077743
0.46810913 -0.31651452 -0.36822867 -0.317981 3.0099792 -0.19041479 -0.15930857 -0.8402867
-0.54591227 1.8444386 2.2902102 1.9979558 -0.39785913 -0.6053489 -0.32618672 2.5526564
2.557729 2.7082353 0.36083597 0.56402147 -0.087791465 -0.691574 0.719334 -1.0442626
-0.251299 2.9933684 -0.44033736 2.6975262 -0.6620165 1.2847321 1.4578383 -0.9118701
1.2727164 1.3637524 0.7054534 -0.8250298 1.1481134 -0.78819895 -0.10001282 2.4913406
2.1166697 0.92139214 0.72646403 0.11605376 -0.1931933 -0.673641 -0.4209097 -0.21473855
3.047749 0.35019967 -0.60642296 -0.44862095 -0.6448205 0.10155682 -0.11345401 0.4028373
-0.6071157 0.90103906 -1.0016203 -0.49779144 -0.50654507 0.29291478 -0.43018755 1.261749
-0.40280727 3.6812673 -0.25165743 1.1365432 -0.7418834 -0.52680916 0.6707601 -0.9261725
3.5862176 0.060956728 -0.8093722 -0.4350237 -0.84011227 1.0501791 -0.94349253 3.4261045
0.95532763 2.5816445 -0.15049484 2.212727 1.455155 -1.0094954 1.9769034 -0.5595011
-0.28729406 -0.24784161 -0.38653427 1.817005 -0.1931921 1.9105939 -0.6109094 -0.22746785
-0.22916083 2.4800596 2.3923984 -0.04525908 1.7497228 0.7721285 0.4128278 1.9448524
-0.9498459 -0.11585261 0.303229 -0.3787293 0.08945093 -0.40403107 2.1231444 -0.35937038
-0.094173364 -0.39072347 2.1940134 -1.0870807 -0.28668466 -1.2299957 0.2068076 2.4183724
-0.65335494 0.886111 -0.37030545 1.1721563 -0.76817393 -0.4492343 -0.40948793 -0.32018116
00000000: eb19 ed3e 41ad a836 4d9e 2e39 ba4a 2e38
00000010: 93d3 3c40 fc3e d439 30a0 ecb7 dfc4 5cbd
00000020: ad1a a6bc fff9 ea3f 1dbb 0e40 7ec2 f63f
00000030: eadf 81b9 10b2 9fba b699 1dba c246 2140
00000040: 3a4d 2140 4b6e 2940 5e96 bc3e 0edb 223f
00000050: 6903 153a 8bac 6dbd ffe6 3d3f be6a c8bc
00000060: 9183 09be 95db 3a40 6e1a c3b8 c63f 2940
00000070: 8614 6939 ad08 a83f 17e5 b53f 93d8 2cba
00000080: afa4 a13f 66e2 b03f 8493 3b3f 2f0d f338
00000090: 2370 933f 3eca 6ebc 7bcc a599 0021 1d40
000000a0: 597c 0440 7069 663f b657 453f c9ac 1b3e
000000b0: 4f75 2dba b63d b4b9 6d10 5438 7eed 15b5
000000c0: e222 3f40 31f4 bc3e 351f 15b6 3501 e3bc
000000d0: bc3c 03bf ee81 813d 57bf 60bd ffc7 e23e
000000e0: 7677 7637 89f6 683f 8827 5cbb 2f16 db38
000000f0: 6db3 9a39 96ca a43e 32fc 9bba 50f7 9d3f
00000100: 328c c7b9 690d 6840 d9eb a437 2efb 913f
00000110: e486 11bf 523d ddba ef8a 2d3f f982 a6ba
00000120: f1dd 5f40 a4af 3f3d 84d9 14bb 352d 0038
00000130: c929 b5ba b79a 873f 4551 82bb 14f8 5840
00000140: 8c2d 783f 0406 2340 20bd 81bd 7eb6 0a40
00000150: f5ea b93f df47 46bb a4a3 fa3f ba7c 4938
00000160: 74c4 2ebe 1b28 b0b8 8e51 8fba 8ef2 e93f
00000170: 57c5 7ebd 7c6d f33f 82d8 82ba 1b9d 77bc
00000180: 21b4 cc37 5719 1e40 397e 1640 be26 dc39
00000190: 9c6d de3f cc82 443f e4ee ca3e a8b3 f33f
000001a0: fab2 31bb 6cc7 2335 c556 9b3e aa0b c738
000001b0: f47e 223e 4e46 73ba c667 0640 5a81 2817
000001c0: 6cfd bdbb b266 9433 22a2 0a40 0a96 5ebb
000001d0: 1e53 8338 a721 84bb 11b6 5b3e 02a8 1740
000001e0: 8aeb cfba 34d7 5e3f 0b6d 15b7 6ef3 923f
000001f0: 8c56 5239 3c28 80b8 ce9e 95b9 a069 abba
00000200: 00ac ef3e 310e a2be 7888 bcbe 68ce a2be
00000210: 80a3 4040 18fc 42be c921 23be 071d 57bf
00000220: e8c0 0bbf 9016 ec3f ce92 1240 04bd ff3f
00000230: 31b4 cbbe 25f8 1abf f201 a7be b95e 2340
00000240: d5b1 2340 ba53 2d40 7ebf b83e b663 103f
00000250: 03cc b3bd fe0a 31bf 4626 383f 66aa 85bf
00000260: 43aa 80be 5993 3f40 e673 e1be 45a4 2c40
00000270: ea79 29bf 1a72 a43f 729a ba3f 5270 69bf
00000280: 5fe8 a23f 708f ae3f 9898 343f 2735 53bf
00000290: 61f5 923f 68c7 49bf 85d3 ccbd 2072 1f40
000002a0: 8477 0740 5be0 6b3f 8cf9 393f 98ad ed3d
000002b0: 77d4 45be bd73 2cbf 7a81 d7be 6ce4 5bbe
000002c0: 520e 4340 5f4d b33e 893e 1bbf a5b1 e5be
000002d0: f512 25bf 06fd cf3d 935a e8bd b140 ce3e
000002e0: ef6b 1bbf 7faa 663f 1835 80bf 85de febe
000002f0: f0ac 01bf edf8 953e 8b41 dcbe fe80 a13f
00000300: c13c cebe e299 6b40 3ed9 80be 3f7a 913f
00000310: 12ec 3dbf f7dc 06bf efb6 2b3f a419 6dbf
00000320: 9784 6540 c3ad 793d 0433 4fbf 6dbb debe
00000330: 9911 57bf 456c 863f ba88 71bf 4c45 5b40
00000340: 5a90 743f aa39 2540 521b 1abe 529d 0d40
00000350: 8542 ba3f 2537 81bf 2c0b fd3f 773b 0fbf
00000360: 3518 93be 31ca 7dbe d2e7 c5be 9f93 e83f
00000370: 26d4 45be 578e f43f 8f64 1cbf 55ed 68be
00000380: 23a9 6abe 4cb9 1e40 0e1d 1940 9661 39bd
00000390: ebf6 df3f 37aa 453f 2a5e d33e ecf0 f83f
000003a0: 1a29 73bf 2244 edbd d540 9b3e cfe8 c1be
000003b0: 0d32 b73d 29dd cebe 99e1 0740 65ff b7be
000003c0: f7dd c0bd e80c c8be b76a 0c40 7625 8bbf
000003d0: 55c8 92be 8070 9dbf 5fc5 533e 9dc6 1a40
000003e0: 4542 27bf 2cd8 623f ad98 bdbe 3809 963f
000003f0: 0ca7 44bf 0a02 e6be 67a8 d1be c9ee a3be
