229-project/6ctaspec/checkpoints/epoch=41-step=1890.ckpt (torch, 252506 bytes, 18 tensors)

mlp.mlp.0.weight f4 [128, 15]
0	0x3cf9b4ca	0.030481715
1	0x3cc8ab61	0.024495782
2	0xbe48b6cf	-0.19600986
3	0xbe890b2f	-0.26766345
4	0xbed038e6	-0.4066841
5	0xbe1dd389	-0.15412726
6	0x3e833219	0.2562416
7	0x3e8942a2	0.2680865
8	0x3e30a748	0.17251313
9	0x3de2e005	0.110778846
10	0xbe6e4d32	-0.23271635
11	0xbe05dcbb	-0.13072483
12	0x3ebfcbdb	0.37460217
13	0xbc600fc9	-0.0136756385
14	0x3e88d452	0.26724488
15	0x3e41308e	0.18866178
16	0x3dcbf752	0.09959282
17	0xbe2d9ec9	-0.16955103
18	0xbdd78f5f	-0.10525393
19	0xbe864ce0	-0.26230526
20	0xbb7d7069	-0.0038671738
21	0xbdeee6bf	-0.11665105
22	0x3d82b960	0.06383014
23	0x3cff392d	0.031155193
24	0x3e840e61	0.2579222
25	0x3d1477a5	0.036246914
26	0x3dd69211	0.10477079
27	0x3d7878ce	0.060662083
28	0x3e6a9457	0.2290815
29	0xbd598c49	-0.053112302
30	0x3e747ca4	0.23875672
31	0x3e3898b1	0.18026997
32	0xbdc4d35a	-0.096106246
33	0x3e2fbe29	0.17162384
34	0x3e5eb11a	0.21747246
35	0xbe1011b5	-0.14069255
36	0xbde41b78	-0.11138052
37	0x3e42144c	0.18953055
38	0x3e585e41	0.21129705
39	0x3dad5a71	0.08464516
40	0x3d8853cf	0.0665661
41	0x3e3420cc	0.17590636
42	0x3e46e7c1	0.19424345
43	0xbe2737e0	-0.16329908
44	0xbdfe9f02	-0.12432672
45	0x3e696906	0.2279397
46	0x3e0ac2de	0.13550898
47	0xbe1c369a	-0.15255204
48	0xbe17d892	-0.14828709
49	0x3e71095a	0.23538724
50	0xbdf3f1fb	-0.119113885
51	0x3e3e2b4a	0.18571201
52	0x3db0ee68	0.086392224
53	0xbea7dc23	-0.32785138
54	0xbe77c486	-0.24196061
55	0x3e21a49c	0.1578545
56	0x3d6f9081	0.05848742
57	0x3e5ab996	0.21359858
58	0x3d025a1c	0.031824216
59	0x3dfedd20	0.1244452
60	0xbe399079	-0.18121518
61	0x3e1a5a6c	0.15073556
62	0xbe7038c7	-0.23459159
63	0x3e2e58df	0.17026089
64	0x3cc22443	0.023698932
65	0x3e27c871	0.16385056
66	0x3d58c5c6	0.052922986
67	0xbe3e6433	-0.1859291
68	0x3aa28298	0.0012398539
69	0x3ca93a2d	0.020657623
70	0x3d469a16	0.04848679
71	0xbe86dc8d	-0.26340142
72	0xbe0df53b	-0.13863079
73	0xbdf91717	-0.12162607
74	0xbdd83327	-0.105566315
75	0x3e768961	0.24075843
76	0x3e5a8eb8	0.21343505
77	0x3e0d58a3	0.13803343
78	0xbd1df449	-0.038563047
79	0xbe41727f	-0.18891333
80	0x3e197ef1	0.1498983
81	0x3e8c69a1	0.27424338
82	0x3d557f3c	0.052123293
83	0xbe85c3a2	-0.26125818
84	0xbd053f06	-0.032530807
85	0xbbeeaf7f	-0.0072841044
86	0x3e4ba8d0	0.19888616
87	0x3dd8e8a2	0.10591246
88	0xbe3a741f	-0.18208359
89	0xbda029ff	-0.0782051
90	0x3d8c2d19	0.06844539
91	0x3e05a1bb	0.13049977
92	0x3e3233dd	0.17402597
93	0x3e39355d	0.18086763
94	0x3e535f66	0.2064186
95	0xbe030720	-0.12795687
96	0xbe8ba51d	-0.2727441
97	0x3e15bb73	0.14622287
98	0x3e87d3c0	0.2652874
99	0xbe445015	-0.19171174
100	0xbe1bdee3	-0.15221743
101	0x3e81e6c0	0.2537136
102	0x3e4453ec	0.19172639
103	0xbcca4cf4	-0.024694897
104	0xbd82b6f3	-0.06382551
105	0x3da9e8f2	0.08296384
106	0xbe8413a9	-0.2579625
107	0xbdb6ef64	-0.08932379
108	0xbcca8fda	-0.024726797
109	0xbd79de37	-0.061002936
110	0x3dde9b0f	0.10869419
111	0x3aa60013	0.0012664817
112	0xbe4cc5ad	-0.19997282
113	0x3aef643a	0.0018264123
114	0x3c7a20ca	0.015266607
115	0x3e10d6fb	0.14144509
116	0xbba544e6	-0.0050436137
117	0xbdb725c1	-0.08942748
118	0x3dcdf2a6	0.10056047
119	0x3e2649b2	0.1623905
120	0x3cb240af	0.02175936
121	0xbe0c6365	-0.13709791
122	0x3d6f8774	0.058478788
123	0x3d8e8237	0.0695843
124	0x3e211c61	0.15733482
125	0xbda63ecd	-0.08117447
126	0xbd3df818	-0.04637918
127	0x3e17ccfc	0.14824289
128	0xbcdc9585	-0.026926765
129	0x3d874ff3	0.06607046
130	0xbd8bed00	-0.068323135
131	0x3e93d858	0.28875995
132	0x3b60196b	0.0034194838
133	0xbd5f1756	-0.054465614
134	0x3e5f0c21	0.2178197
135	0xbcf6498d	-0.030064369
136	0x3e6b2071	0.22961594
137	0xbd2f3fc4	-0.04278542
138	0x3e366842	0.17813209
139	0xbd59d594	-0.0531822
140	0x3d1308d4	0.03589709
141	0x3b7c86e8	0.0038532559
142	0xbe87a1b7	-0.26490566
143	0x3d06edf7	0.032941785
144	0x3e1d0620	0.15334368
145	0x3e0bad8f	0.13640426
146	0xbc8a46ca	-0.016879458
147	0xbd4aa789	-0.04947618
148	0x3da66b83	0.08125975
149	0x3e850e1f	0.25987336
150	0xbe0c63ae	-0.137099
151	0x3df021b4	0.11725178
152	0xbe633eaf	-0.2219188
153	0x3c251377	0.010075442
154	0xbdadd469	-0.0848778
155	0xbdc46c36	-0.09590952
156	0xbe8c901e	-0.27453703
157	0x3e446eba	0.19182864
158	0x3c46b3f9	0.01212787
159	0x3c69b5b1	0.01426451
160	0xbc8a6205	-0.016892442
161	0xbe073a33	-0.13205795
162	0xbe62dd7b	-0.221548
163	0x3d4974e7	0.049183752
164	0xbde3f270	-0.11130226
165	0xbdf8116e	-0.121126994
166	0x3e1078ba	0.14108554
167	0x3e5ed234	0.21759874
168	0xbda5c6c7	-0.080945544
169	0xbe7dae83	-0.24773602
170	0x3e8a236b	0.26980147
171	0x3db1367a	0.08652969
172	0x3e3d4fb3	0.18487434
173	0xbd4cfb04	-0.050044075
174	0xbd558657	-0.05213007
175	0x3d371d4d	0.044705678
176	0x3c8b7fae	0.017028656
177	0xbc29da00	-0.010366917
178	0xbe09393a	-0.13400736
179	0x3ea657ee	0.3248896
180	0x3df6572a	0.12028344
181	0xbc99b88e	-0.01876476
182	0xbe6e1029	-0.23248352
183	0xbddfbe77	-0.10925
184	0xbdc07552	-0.09397377
185	0xbd19ba18	-0.03753099
186	0x3d94d982	0.07268049
187	0xbd2c8a23	-0.042123925
188	0x3dba498d	0.0909606
189	0xbe2bb412	-0.1676791
190	0xbd98c7ce	-0.07459985
191	0x3dcc7d7b	0.09984871
192	0x3e7288f2	0.23685053
193	0xbe5f5bc6	-0.21812353
194	0xbcd45ebd	-0.025924081
195	0x3e29c839	0.16580285
196	0xbd9c562b	-0.07633623
197	0x3d3dc1ec	0.046327516
198	0x3e23254e	0.159322
199	0xbe88aa87	-0.26692602
200	0x3e199647	0.14998733
201	0xbe75b382	-0.23994258
202	0x3d964a09	0.0733834
203	0x3e3aa29e	0.18226096
204	0xbdcc39bf	-0.09971952
205	0xbb8dcf99	-0.004327726
206	0xbe8c35fd	-0.2738494
207	0xbce1528f	-0.027505187
208	0x3e14fe79	0.14550199
209	0x3d5bc14b	0.053651135
210	0x3db028d4	0.08601537
211	0xbd5fffcf	-0.054687317
212	0xbddccaf2	-0.10780896
213	0x3e39d848	0.18148911
214	0x3d901431	0.07035101
215	0x3da0e2e9	0.0785578
216	0x3df410f3	0.11917295
217	0xbdae459a	-0.08509369
218	0xbc73fb5a	-0.01489147
219	0x3e86b986	0.26313418
220	0x3e731ba7	0.23741017
221	0xbe881cac	-0.26584375
222	0xbe5884c4	-0.21144396
223	0xbd97f4f8	-0.07419771
224	0x3da8f59f	0.082499735
225	0xbe1a9fe8	-0.15100062
226	0x3e0f7a35	0.14011462
227	0xbe6df81f	-0.23239182
228	0xbce6dfe7	-0.028182937
229	0x3e2ecd5e	0.17070529
230	0xbd8af21a	-0.067844585
231	0xbdf857cf	-0.12126123
232	0x3d37f4ed	0.044911314
233	0x3e3c1f13	0.18371229
234	0x3d4a32b0	0.049364746
235	0x3ce96b08	0.02849342
236	0xbcfdd142	-0.030983571
237	0xbe74688e	-0.2386801
238	0xbdd16c6f	-0.1022576
239	0x3e833e78	0.25633597
240	0xbe3699f8	-0.17832172
241	0x3e003819	0.125214
242	0xbda8835c	-0.0822818
243	0x3db14157	0.08655041
244	0x3df01efa	0.11724658
245	0x3e45aea1	0.19304897
246	0xbe5340d5	-0.206302
247	0xbd17efeb	-0.037094038
248	0xbe3a13b4	-0.18171579
249	0x3d5dc442	0.054142244
250	0xbddf6d4e	-0.1090952
251	0xbca1c9e0	-0.019749582
252	0xbe68b7aa	-0.22726312
253	0xbd6eb57b	-0.058278542
254	0xbe3e0355	-0.18555959
255	0xbe6cff22	-0.231442

mlp.mlp.0.bias f4 [128]
0	0xbc517c96	-0.012786051
1	0x3c242614	0.010018844
2	0x3e3a72c8	0.18207848
3	0xbe165975	-0.14682563
4	0x3b538253	0.0032273724
5	0x3e2788a5	0.1636072
6	0xbdc2ecfe	-0.09517859
7	0x3d786ea6	0.060652398
8	0xbe2b958a	-0.16756263
9	0xbdde765b	-0.10862418
10	0xbdd3e8bf	-0.10347127
11	0xbe712a3d	-0.23551269
12	0xbe02d530	-0.12776637
13	0x3e1ac216	0.151131
14	0xbc93fec6	-0.018065821
15	0x3e936506	0.28788012
16	0x3e695ef0	0.22790122
17	0xbdec05cf	-0.115245454
18	0x3ca1f9d7	0.019772453
19	0x3e131536	0.1436356
20	0x3e8890b7	0.2667291
21	0x3e522355	0.2052129
22	0x3d4ce350	0.05002147
23	0x3e829b4a	0.255091
24	0x3ea6506d	0.32483235
25	0xbe1f081a	-0.15530434
26	0xbd4d44e5	-0.05011453
27	0xbe014450	-0.12623715
28	0x3e73b4b1	0.23799397
29	0x3e37d17f	0.1795101
30	0xbd868d8e	-0.06569968
31	0xbdd7f20c	-0.10544214
32	0x3d9aba7e	0.07555102
33	0x3d897acc	0.06712875
34	0x3e56d99e	0.20981452
35	0x3e8463c7	0.25857374
36	0xbe3e86f1	-0.18606164
37	0x3dd21f1c	0.1025984
38	0xbe384650	-0.17995572
39	0xba8e015b	-0.0010834144
40	0x3c4c549b	0.012471343
41	0x3dbf3987	0.09337144
42	0x3e620c3b	0.22074978
43	0x3e954795	0.29156175
44	0x3db64239	0.0889935
45	0xbe338f72	-0.17535189
46	0x3da488c6	0.080339
47	0x3c9b57d9	0.018962787
48	0xbd8de7c4	-0.069289714
49	0x3e988df9	0.29795817
50	0xbe4d1883	-0.20028882
51	0x3da46c23	0.08028438
52	0x3f0a7148	0.54079103
53	0xbd22da78	-0.03975913
54	0xbdfe853d	-0.12427757
55	0xbdf577eb	-0.11985763
56	0xbc85adb4	-0.01631818
57	0xbe4a6bf8	-0.1976775
58	0x3b43d32b	0.0029880505
59	0xbd1c0d4c	-0.03809862
60	0x3e37eafc	0.17960733
61	0x3ebe8ab4	0.37215197
62	0xbdd02ecb	-0.10165175
63	0xbc060972	-0.008180963
64	0x3e5318b3	0.20614891
65	0x3da90e30	0.08254659
66	0xbe178561	-0.14796974
67	0x3e44ae73	0.19207172
68	0x3eb78e17	0.35850593
69	0x3e3fd622	0.18734029
70	0x3d981a02	0.074268356
71	0xbb2f53d5	-0.0026752849
72	0xbe3e32c1	-0.18574049
73	0xbd64fa6d	-0.055902887
74	0x3de4cc24	0.11171749
75	0x3dba62b4	0.091008574
76	0xbe412023	-0.18859915
77	0xbb3f7b4b	-0.0029217775
78	0xbcef2f46	-0.029197346
79	0x3e6be3c5	0.23036106
80	0x3e47e0e6	0.19519386
81	0x3e7a3746	0.24435148
82	0x3d7969b0	0.060891807
83	0x3d133139	0.035935614
84	0xbe944e29	-0.2896588
85	0x3d479b20	0.048731923
86	0xbcccac99	-0.024984645
87	0x3d8d4533	0.06897964
88	0x3dad7041	0.08468676
89	0xbe180d94	-0.1484893
90	0xbc94f60c	-0.01818373
91	0x3e472db9	0.19451036
92	0xbd0649b8	-0.032785147
93	0x3e8a843b	0.2705401
94	0x3e667c13	0.22508268
95	0xbe272e16	-0.16326174
96	0x3d877e51	0.0661589
97	0x3e61b134	0.22040254
98	0xbcd14089	-0.025543468
99	0x3e47b10d	0.19501133
100	0xbcf6196d	-0.03004142
101	0xbd68461e	-0.056707494
102	0x3c99d05d	0.018776113
103	0xbd92824b	-0.07153758
104	0xbdec582d	-0.11540256
105	0xbe01161a	-0.12606087
106	0xbd120549	-0.03564957
107	0x3e1cbff4	0.153076
108	0x3ea33f9d	0.3188447
109	0xbdee0ada	-0.116231635
110	0x3bcebf55	0.0063094296
111	0xbe82c11f	-0.25537965
112	0x3eb7c67e	0.35893625
113	0xbe2696a2	-0.162684
114	0x3e82c02a	0.25537235
115	0xbe37dfbb	-0.1795644
116	0x3da6bf54	0.08141962
117	0x3caa0725	0.02075536
118	0x3e270814	0.16311675
119	0x3d06e677	0.032934632
120	0xbd616cc8	-0.055035383
121	0x3d8d0b00	0.06886864
122	0x3e581ba8	0.211043
123	0x3d30515f	0.04304635
124	0x3e32875d	0.1743445
125	0xbe657cb9	-0.22410859
126	0xbd137fd2	-0.03601057
127	0x3d36b90d	0.044610072

mlp.mlp.2.weight f4 [128, 128]
0	0x3d2f5df4	0.04281421
1	0xbe0188c1	-0.12649824
2	0x3d43fb8d	0.04784732
3	0xbc9ef6f0	-0.019404858
4	0x3c07fbf3	0.0082998155
5	0xbd2a1d28	-0.04153171
6	0x3c57f70e	0.013181461
7	0x3d264344	0.040591493
8	0x3cbebbad	0.02328285
9	0xbcae0963	-0.02124471
10	0x3db96b54	0.09053674
11	0x3ce16fc5	0.027519116
12	0xbcda43e2	-0.026643697
13	0xbd958c09	-0.073021
14	0xbcc06826	-0.023487162
15	0xbc017d53	-0.007903415
16	0x3dbadfc7	0.091247134
17	0x3d565c81	0.052334312
18	0x3d95bace	0.07311021
19	0x3dc5090b	0.096208654
20	0x3d19721c	0.03746234
21	0xbcd1a57b	-0.025591603
22	0x3c295430	0.010335013
23	0x3db85abf	0.090016834
24	0xbc7581a9	-0.014984527
25	0xbb85b187	-0.004080001
26	0xbd00e4f9	-0.031468365
27	0x3d9ff85d	0.078110434
28	0x3c90e368	0.01768656
29	0xbd3e464a	-0.04645375
30	0x3d35fbf0	0.04442972
31	0x3d9b5918	0.07585353
32	0x3d9cdc3c	0.07659194
33	0x3c1df126	0.009640014
34	0xbd66ae4e	-0.056318574
35	0xbcba807a	-0.02276634
36	0xbd3a65b2	-0.04550714
37	0xbc16022d	-0.009155792
38	0x3ba2bdd0	0.004966475
39	0xbcf4ea61	-0.029896917
40	0xbd503b6c	-0.05083792
41	0x3d632721	0.055457238
42	0xbd071381	-0.032977585
43	0x3d55afcc	0.052169606
44	0x3c84b0c4	0.01619757
45	0xbdb9deb5	-0.09075681
46	0x3beed957	0.0072890925
47	0xbd8db7ee	-0.069198474
48	0xbcc69ad4	-0.02424375
49	0x3dbc95bc	0.09208247
50	0xbdafc9ec	-0.085834354
51	0x3d992e3d	0.074795224
52	0x3d8c0c1f	0.068382494
53	0x3d95c3a8	0.07312709
54	0x3d7f8ccc	0.062390134
55	0xbc8656df	-0.016398845
56	0xbde72771	-0.1128682
57	0x3d9c15e3	0.07621362
58	0x3d29a264	0.041414633
59	0xbd9b5b65	-0.075857915
60	0x3ccb2e66	0.024802398
61	0x3d0f8b54	0.035044983
62	0x3b8e0e72	0.004335218
63	0x3dab09a1	0.08351446
64	0x3d6c13bc	0.057636008
65	0x3c9555b2	0.01822934
66	0xbd17dc48	-0.03707531
67	0xbd11a1ba	-0.035554625
68	0x3d8d1b81	0.068900116
69	0x3dc66c98	0.09688681
70	0x3d2bad0d	0.04191308
71	0xbd95206d	-0.07281575
72	0xbcb99009	-0.02265169
73	0xbdb360b0	-0.08758676
74	0xbd860d97	-0.06545561
75	0x3d2bc5d8	0.041936725
76	0x3d75eaa1	0.060038213
77	0x3d8ebc29	0.069694825
78	0x3c8d8d68	0.017279342
79	0xbd388fe5	-0.045059104
80	0x3cb91b6b	0.022596082
81	0x3d6e7954	0.058221176
82	0x3ca16535	0.01970158
83	0xbcb2dce7	-0.02183385
84	0x3cd06cb3	0.025442457
85	0xbd5b9e45	-0.053617734
86	0x3d5df4a1	0.054188374
87	0xbd04ec5b	-0.03245197
88	0xbd08dec0	-0.033415556
89	0x3c3f7e99	0.011687898
90	0x3c5ca82c	0.01346783
91	0x3da3c8b4	0.079972655
92	0x3d759acc	0.05996208
93	0xbc5468d6	-0.012964448
94	0x3d471569	0.048604403
95	0x3d58745a	0.052845336
96	0x3c73da21	0.014883549
97	0xbcb0ae76	-0.021567564
98	0x3c244aaa	0.010027567
99	0xbc9a495b	-0.018833807
100	0xbc8d4892	-0.017246518
101	0x3db40411	0.08789838
102	0xbcb8473a	-0.022494901
103	0x3d79a2e1	0.06094635
104	0x3dbaa98d	0.091143705
105	0xbc7cf76a	-0.0154398475
106	0x3d68e233	0.056856345
107	0xbd1d8ffb	-0.03846739
108	0x3d828a58	0.06374043
109	0x3e11d9e6	0.14243278
110	0x3d413899	0.047173116
111	0xbdc349a8	-0.09535533
112	0x3d1408c5	0.036141176
113	0x3bfbf293	0.007688829
114	0x3d584cb3	0.05280752
115	0x3c34e1fa	0.011040205
116	0xbdef63d1	-0.1168896
117	0xbc175ad6	-0.009237966
118	0xbd6e4e6a	-0.05818025
119	0xbd122511	-0.03567988
120	0xbcb09865	-0.021557042
121	0x3d10a017	0.035308924
122	0x3dadfa9e	0.08495067
123	0x3dabfda0	0.083979845
124	0x3aa8ef6b	0.0012888735
125	0xbd4a212c	-0.04934804
126	0xbca16bf9	-0.019704806
127	0x3db7f71f	0.089826815
128	0xbd816d37	-0.06319659
129	0x3d06eb64	0.03293933
130	0xbdb7b649	-0.08970315
131	0x3c0afaf0	0.00848268
132	0x3d88160b	0.06644829
133	0xbd0f05a6	-0.034917496
134	0xbba62fc1	-0.0050716107
135	0xbaf5d27a	-0.0018754744
136	0x3d59e2e8	0.05319491
137	0x3d733af8	0.05938241
138	0xbd08c66d	-0.03339236
139	0xbc3e1339	-0.011601263
140	0x3d88fb9d	0.066886164
141	0xbc4f267b	-0.012643452
142	0xbc0e06e1	-0.008668632
143	0x3c92dda9	0.017927961
144	0x3d5092a7	0.05092111
145	0x3a7d2ed8	0.00096581643
146	0xbd26380e	-0.0405808
147	0x3aa42070	0.0012521874
148	0xbd9a5f7d	-0.07537744
149	0x3d4d2b81	0.050090317
150	0xbd730577	-0.059331384
151	0x3d0b17cd	0.033958245
152	0x3c91a451	0.017778547
153	0xbc2ded24	-0.010615621
154	0x3d105079	0.035232995
155	0x3db9bac6	0.09068827
156	0xbdaa56cc	-0.083173364
157	0xbd7919a1	-0.060815457
158	0x3c1161ab	0.0088733835
159	0x3c18445b	0.009293641
160	0xbc5ed225	-0.013599907
161	0x3de2c6c3	0.11073067
162	0x3ca9f353	0.020745909
163	0xbdc171ad	-0.0944551
164	0x3b6aacb9	0.0035808517
165	0xbd536851	-0.051613156
166	0x3d02848c	0.031864688
167	0x3d78cf86	0.060744785
168	0x3dab48a7	0.08363467
169	0xbd6253d8	-0.05525574
170	0xbd19877b	-0.03748272
171	0xbc7f84ab	-0.015595595
172	0x3d2fa13d	0.04287838
173	0xbc5b26ee	-0.013375981
174	0x3d85b8eb	0.06529411
175	0xbd960d8b	-0.07326802
176	0xbcc50fab	-0.024055323
177	0xbd20f4c5	-0.03929593
178	0xbd4736ce	-0.04863625
179	0x3d0250e8	0.03181544
180	0x3e843483	0.25821313
181	0x3cd22bbd	0.025655622
182	0xbc64fbb3	-0.013976025
183	0xbd199138	-0.037492007
184	0xbd4247aa	-0.047431625
185	0x3d6c425c	0.057680473
186	0x3d09567c	0.033529744
187	0x3d818676	0.063244745
188	0xbdbd3209	-0.09238059
189	0xbcd51205	-0.026009569
190	0x3ca9c3d6	0.020723265
191	0x3bb36ea1	0.0054758345
192	0xbd884a02	-0.06654741
193	0x3ccb0383	0.024781948
194	0xbdcb5dc2	-0.09929992
195	0xbd66b673	-0.05632634
196	0x3c6c521f	0.014423876
197	0xbbcf60ff	-0.0063287015
198	0xba7059f6	-0.00091686787
199	0x3c5b77b2	0.013395237
200	0x3d0ebdd6	0.03484901
201	0x3b98e909	0.004666452
202	0xbc080298	-0.0083014
203	0x3d8fde24	0.07024792
204	0xbb9c38a6	-0.004767495
205	0xbc69b68e	-0.014264716
206	0x3d1b296f	0.03788131
207	0x3d86002c	0.065430015
208	0x3d9240a3	0.07141235
209	0x3d18c506	0.03729727
210	0xbd4698ce	-0.04848557
211	0x3db1ed10	0.08687794
212	0xbbaf933d	-0.0053581283
213	0x3d0b170a	0.03395752
214	0xbce7b1e4	-0.028283067
215	0xbd8c486c	-0.06849751
216	0x3db81649	0.089886256
217	0xbc20b5f1	-0.009809003
218	0xbc0c5337	-0.008564762
219	0x3da88521	0.08228517
220	0x3bece30b	0.007229214
221	0xbd2f04d4	-0.042729214
222	0x3d2f10ec	0.042740747
223	0x3d3e6c2e	0.046489887
224	0xbdc5d801	-0.0966034
225	0xbd292e63	-0.041304003
226	0xbcfa85b1	-0.030581327
227	0xbda1d4e2	-0.07901932
228	0xbcf011c5	-0.029305348
229	0x3d812b69	0.06307108
230	0x3c242e2f	0.010020777
231	0x3ce65064	0.028114505
232	0x3daf76e2	0.08567597
233	0xbd6e4ae0	-0.058176875
234	0x3dfb5ce2	0.12273575
235	0xbdc0928b	-0.09402951
236	0x3c47b8cd	0.012190056
237	0x3dbf1a13	0.09331145
238	0x3d4515c2	0.048116453
239	0xbd78342d	-0.060596634
240	0x3d9afd2a	0.075678185
241	0x3c932ec0	0.017966628
242	0x3dbfcd62	0.093653455
243	0xbc40ab23	-0.011759552
244	0xbdeb4c9d	-0.11489222
245	0xbaf766eb	-0.0018875276
246	0x3cb04219	0.021515893
247	0xbcbb86ed	-0.022891486
248	0x3b28ffec	0.0025787307
249	0x3bdd6cc3	0.00675735
250	0xbc94a997	-0.018147273
251	0x3dbd9d12	0.092584744
252	0xbd28d404	-0.04121782
253	0xbdaf9664	-0.085736066
254	0xbbbab4f0	-0.005697839
255	0xbd1f2077	-0.03884932

mlp.mlp.2.bias f4 [128]
0	0x3e2e4a50	0.17020535
1	0x3e635681	0.22200967
2	0x3e48b8c1	0.19601728
3	0x3d38781f	0.04503643
4	0x3cc7c054	0.024383701
5	0xbcbc4698	-0.02298288
6	0x3e422339	0.18958749
7	0x3d86c4a6	0.065804765
8	0x3e2e7611	0.17037226
9	0xbce208c5	-0.027592072
10	0x3d5c782d	0.053825546
11	0xbb95133a	-0.004549411
12	0x3d4b9b02	0.049708374
13	0x3b4f58cc	0.003163862
14	0x3ced5e3a	0.028975595
15	0xbda120c6	-0.07867579
16	0x3dbc7a11	0.0920297
17	0x3aca9b9b	0.0015457751
18	0xbc1296a2	-0.0089470465
19	0xbdb471fd	-0.08810804
20	0x3d44d779	0.048057053
21	0x3d5284f0	0.05139631
22	0x3e1eb903	0.15500264
23	0xbdc38544	-0.09546903
24	0xbd80fb85	-0.062979735
25	0xbb557d22	-0.0032575806
26	0xbd946639	-0.0724606
27	0x3df0f2a2	0.117650285
28	0x3d625fb6	0.05526706
29	0xbcc02413	-0.023454702
30	0x3d9f9b81	0.07793332
31	0x3c412e4e	0.011790825
32	0x3e633071	0.22186448
33	0x3d879f9b	0.06622239
34	0x3e3c70c7	0.18402396
35	0x3e4e07e6	0.201202
36	0xbbcd7cf7	-0.0062710005
37	0xbd0de487	-0.03464177
38	0xbdc6e6f9	-0.09712023
39	0xbd6bd96a	-0.05758039
40	0xbe42af4d	-0.19012184
41	0x3cd19612	0.025584254
42	0xbd1966cb	-0.037451547
43	0x3d8cf446	0.06882529
44	0x3e0d8092	0.13818577
45	0x3e854d68	0.2603562
46	0xbd477f51	-0.048705403
47	0x3d70a4fb	0.058751088
48	0x3cf21e13	0.029555356
49	0x3dbf9078	0.09353727
50	0x3d24439b	0.040103536
51	0xbd853a66	-0.06505279
52	0xbcf7248f	-0.0301688
53	0x3c21af08	0.009868391
54	0x3e9abc03	0.30221567
55	0x3da3f7e5	0.080062665
56	0x3e95309a	0.29138643
57	0x3df13030	0.11776769
58	0xbdbea22f	-0.09308278
59	0xbd0a4f8f	-0.03376728
60	0xbdaef87e	-0.0854349
61	0xbd97dac7	-0.07414775
62	0x3e9c6e9a	0.30553132
63	0xbdc912f0	-0.09818065
64	0x3d0fd9a0	0.035119653
65	0xbbfd1f98	-0.0077247135
66	0x3cd392a1	0.025826754
67	0x3cbfc1af	0.023407785
68	0xbdc98101	-0.09839059
69	0xbdd330e3	-0.10312059
70	0x3e0352d8	0.12824571
71	0x3e1445b5	0.14479716
72	0x3d262ec6	0.04057195
73	0x3ce68228	0.028138235
74	0x3ccd9613	0.025095975
75	0xbcfd90cf	-0.03095284
76	0x3d30aff6	0.04313656
77	0x3e8df8db	0.27728924
78	0xbd7e3890	-0.06206566
79	0x3e9d2894	0.3069502
80	0x3e8e2e7e	0.27769846
81	0x3d01c9a0	0.031686425
82	0x3debfd55	0.115229286
83	0x3d9752dc	0.07388851
84	0xbd59ced6	-0.05317577
85	0xbd03b79c	-0.032157525
86	0x3da4eb2d	0.08052669
87	0x3d90247b	0.07038208
88	0xbd4da094	-0.050201967
89	0xbce607c0	-0.028079867
90	0x3d2fd1cb	0.042924684
91	0x3eb7e974	0.35920298
92	0xbddb331e	-0.10703109
93	0x3da93c69	0.082634754
94	0x3d023445	0.03178813
95	0xbdb61d2c	-0.08892283
96	0xbdb89b12	-0.09013952
97	0x3f225601	0.6341248
98	0x3d90f58b	0.070780836
99	0x3c8e43de	0.017366346
100	0xbe1d576a	-0.15365377
101	0xbc390600	-0.011292934
102	0x3d2a6da7	0.04160848
103	0xbd9dba18	-0.0770151
104	0xbcdf96c2	-0.027293567
105	0x3dfe1934	0.12407151
106	0x3db8a317	0.09015482
107	0xbdd01dc2	-0.10161926
108	0x3e15cb85	0.14628418
109	0xbd743275	-0.059618432
110	0xbd9bea12	-0.07613005
111	0x3c31ccf3	0.010852086
112	0x3ead0e60	0.3380003
113	0xbd96a204	-0.07355121
114	0x3d288adf	0.041148063
115	0x3df22a6c	0.118244976
116	0xbcb743fd	-0.022371287
117	0x3d83f37c	0.06442925
118	0x3cef38b4	0.029201843
119	0x3e83aafe	0.25716394
120	0x3d9708b6	0.07374708
121	0xbb8b1c69	-0.00424533
122	0x3dc0a940	0.09407282
123	0x3dea4316	0.11438577
124	0xbf2031fc	-0.6257627
125	0xbd7b3835	-0.0613329
126	0xbdbd2be0	-0.09236884
127	0xbd815924	-0.0631583

mlp.mlp.4.weight f4 [13, 128]
0	0xbdd12a02	-0.102130905
1	0xbd531cd0	-0.05154115
2	0xbd92fe7f	-0.071774475
3	0x3d24dacf	0.040247735
4	0x3df1677f	0.117873184
5	0xbdb0cf20	-0.08633256
6	0xbdbb3755	-0.09141413
7	0xbc36e3f3	-0.011162746
8	0xbd850834	-0.06495705
9	0x3e05cf69	0.13067402
10	0xbd27edfe	-0.04099845
11	0x3da5065d	0.08057854
12	0x3c80557a	0.015665758
13	0xbde06073	-0.10955896
14	0xbd70939e	-0.05873453
15	0x3d9872e4	0.07443789
16	0x3dfe5c6a	0.1241997
17	0x3d6d664d	0.05795889
18	0xbdd4acc0	-0.10384512
19	0x3d5373d3	0.05162413
20	0xbde20ba5	-0.11037377
21	0x3de0b0f2	0.1097125
22	0xbde33450	-0.11093962
23	0x3d6dc1b0	0.058046043
24	0xbd9b7cb3	-0.07592144
25	0x3d7f68d7	0.062355842
26	0x3db11e2c	0.08648333
27	0xbdc95b82	-0.09831907
28	0x3dee55af	0.116374366
29	0xbcc157b2	-0.023601387
30	0xbd496cfd	-0.049176205
31	0x3ccea4c8	0.025225058
32	0xbd9ee7b2	-0.07759036
33	0x3d6a5b6c	0.057216093
34	0xbd1db1ac	-0.03849952
35	0xbcfc2909	-0.030781286
36	0xbdbe790e	-0.09300433
37	0x3d4cbadd	0.049982894
38	0x3c5930c4	0.013256256
39	0xbd5f5ede	-0.05453383
40	0x3d8702d0	0.06592333
41	0xbd9b3f4b	-0.075804316
42	0x3d77acbd	0.06046747
43	0xbc866df6	-0.016409855
44	0xbd9a4c4e	-0.07534085
45	0xbd0d8d5f	-0.03455865
46	0x3d6267bd	0.055274714
47	0xbdb583cf	-0.08863031
48	0x3d8ca1fb	0.06866833
49	0xbdd4f137	-0.103975706
50	0x3dbbb5ed	0.09165559
51	0xbbef94c7	-0.007311437
52	0xbdb5d7d6	-0.08879058
53	0xbde760e9	-0.11297781
54	0xbd942739	-0.07234044
55	0xbd9ac9e7	-0.07558041
56	0xbcd7468e	-0.02627876
57	0xbda94829	-0.082657166
58	0x3cece3fe	0.028917309
59	0xbd870006	-0.06591801
60	0xbdbf815a	-0.09350844
61	0xbd35c793	-0.044379782
62	0xbd80fd5f	-0.06298327
63	0x3c1902cd	0.009339047
64	0x3dbfe2a7	0.093694024
65	0x3ce1e092	0.027572904
66	0x3d4fe5cd	0.050756264
67	0xbd66f211	-0.056383196
68	0xbd163941	-0.036675695
69	0xbcd6a7b5	-0.026203016
70	0xbdb2803c	-0.08715865
71	0xbdc01a15	-0.09379975
72	0xbd2b8ed3	-0.041884255
73	0xbdc78023	-0.09741237
74	0x3d227000	0.039657593
75	0x3d2a4fff	0.041580196
76	0x3c5526cd	0.013009739
77	0xbd52c562	-0.05145777
78	0xbd7012b6	-0.058611594
79	0xbd2497d6	-0.040183865
80	0xbd9ed853	-0.07756104
81	0x3d67ca10	0.056589186
82	0x3ddeaf39	0.10873265
83	0xbdbdbc88	-0.09264475
84	0xbde2f851	-0.11082519
85	0xbde5b6b3	-0.11216488
86	0x3d9e4f3b	0.07729956
87	0x3dc77653	0.097393654
88	0x3d8d8e3d	0.069118954
89	0xbcc0b255	-0.023522535
90	0x3d7f4616	0.0623227
91	0xbce7daec	-0.028302632
92	0xbd26a8f6	-0.040688477
93	0xbd7ca7c9	-0.06168345
94	0xbd0cd9a2	-0.03438724
95	0xbd8b2326	-0.067938134
96	0xbc5e1c57	-0.013556561
97	0xbd2434c8	-0.0400894
98	0x3bb40e17	0.0054948437
99	0x3d1417c4	0.036155477
100	0xbcaf0f8c	-0.021369718
101	0x3d2909b3	0.041269016
102	0x3d194b70	0.03742546
103	0x3c11fdc8	0.008910604
104	0x3e02749b	0.12739794
105	0xbd95a88c	-0.073075384
106	0xbdca6322	-0.09882189
107	0xbadbe9fe	-0.0016778109
108	0xbdc99468	-0.09842759
109	0x3dee9764	0.11649969
110	0x3d8228a2	0.06355406
111	0x3b48309e	0.0030546556
112	0xbd8eae3a	-0.06966825
113	0xbd8ea72f	-0.069654815
114	0x3e01f742	0.12691978
115	0xbda88471	-0.08228386
116	0x3ae092dc	0.0017133611
117	0xbcb0b4f3	-0.021570658
118	0x3d1ace5f	0.037794467
119	0xbcfa6b53	-0.030568754
120	0xbdc85497	-0.09781759
121	0x3dea65d3	0.11445203
122	0xbd39480a	-0.045234717
123	0xbd40c045	-0.047058363
124	0xbc7c41f0	-0.01539658
125	0xbc5f29cb	-0.013620804
126	0xbd2a050e	-0.041508727
127	0xbd3366fb	-0.04379938
128	0xbae51996	-0.0017478939
129	0xbce04fbb	-0.027381768
130	0xbd81d0f5	-0.063386835
131	0x3d959495	0.073037304
132	0xbd834760	-0.06410098
133	0x3daf307a	0.08554168
134	0xbd4d8001	-0.050170902
135	0x3cd21986	0.025646936
136	0xb988a721	-0.00026064462
137	0xbd50691d	-0.050881494
138	0x3d0f7adf	0.03502929
139	0x3d18dc29	0.037319336
140	0xbd2872c3	-0.04112507
141	0x3d5cd8dd	0.053917754
142	0x3d98c590	0.07459557
143	0x3d0d57ff	0.034507748
144	0x3d06a0c7	0.032868173
145	0xbd9b15f6	-0.07572548
146	0x3da71f83	0.08160307
147	0xbd85e66a	-0.065380886
148	0x3b8fccdc	0.004388435
149	0xbdd3d112	-0.10342611
150	0x3b2191c9	0.0024653545
151	0xbc530b4f	-0.012881114
152	0x3d9afba0	0.07567525
153	0xbdc6c09b	-0.09704705
154	0xbc9b477b	-0.018954983
155	0x3d1d4f07	0.038405444
156	0xbdbb1345	-0.09134535
157	0xbdaa4610	-0.083141446
158	0x3d1e1e00	0.03860283
159	0x3bac7f9c	0.0052642357
160	0x3b2dcc7f	0.0026519594
161	0xbc42c5df	-0.011887996
162	0xbd563508	-0.05229667
163	0xbd2bfd07	-0.041989353
164	0x3db52b3d	0.08846138
165	0xbdace25c	-0.08441612
166	0x3de79719	0.113081165
167	0x3df3f053	0.119110726
168	0x3d944d24	0.07241276
169	0x3da3d6b2	0.07999934
170	0x3d31218d	0.043244887
171	0xbd29a19e	-0.041413896
172	0xbd03dfdf	-0.032195922
173	0xbd57a0c3	-0.05264355
174	0x3ae1a508	0.0017215321
175	0x3c51af50	0.012798145
176	0x3c2baad3	0.010477739
177	0x3c6ffd89	0.01464785
178	0xbd4bf709	-0.049796138
179	0xbcac7357	-0.021051092
180	0x3dac1e9f	0.08404278
181	0x3d0be032	0.034149356
182	0xbdf57b2b	-0.11986383
183	0x3c0c1b24	0.008551393
184	0xbd7c28ae	-0.061562233
185	0x3c3c8eb4	0.011508632
186	0x3d2cceff	0.042189594
187	0xbd92817e	-0.07153605
188	0x3dcd1d99	0.10015411
189	0x3d6f0abc	0.058359846
190	0xbd884fe1	-0.06655861
191	0x3c61f793	0.013791936
192	0x3d74da92	0.059778757
193	0xbd086445	-0.03329875
194	0xbd81356e	-0.06309019
195	0x3d82df1d	0.06390212
196	0x3d9e54ae	0.07730995
197	0x3de89b7e	0.11357783
198	0xbd0ac98e	-0.033883624
199	0xbb659335	-0.003503037
200	0xbd671292	-0.056414194
201	0x3db4c152	0.088259354
202	0xbd42cd50	-0.047559083
203	0xbd8016c6	-0.06254344
204	0xbcf6a136	-0.030106168
205	0xbd16e001	-0.03683472
206	0x3d24bec0	0.040220976
207	0xbd1f726b	-0.038927477
208	0xbd3319be	-0.04372572
209	0xbd88ece3	-0.066858076
210	0xbd18efc3	-0.03733803
211	0xbc4196db	-0.011815752
212	0x3dc19963	0.09453084
213	0x3d8770a5	0.06613282
214	0x3c60c4e3	0.013718816
215	0xbc66b827	-0.014081991
216	0xbd92edf2	-0.07174291
217	0x3dc03bcf	0.093864076
218	0xbcd4f07b	-0.025993576
219	0xbe24cf55	-0.16094716
220	0x3d24dfaf	0.040252384
221	0x3d502507	0.050816562
222	0x3d6c5432	0.057697482
223	0x3dbb4c36	0.091453955
224	0x3dbc408f	0.09192001
225	0xbee51818	-0.44744945
226	0xbd91adce	-0.07113229
227	0x3db91f8c	0.0903922
228	0x3d5258eb	0.05135433
229	0x3e9fdb6d	0.31222096
230	0x3d2e4a35	0.042551238
231	0x3d820ad1	0.06349719
232	0x3d6640f4	0.056214288
233	0x3d5a22df	0.053255912
234	0x3c5e849b	0.01358142
235	0x3d523e04	0.051328674
236	0xbc80c4c1	-0.01571882
237	0x3de7fea0	0.11327863
238	0x3cd598dd	0.026073867
239	0x3d0b1848	0.033958703
240	0xbbaa00d9	-0.0051880893
241	0xbbec5c8d	-0.0072131814
242	0xbdd9a5e6	-0.10627346
243	0xbd8080cd	-0.06274567
244	0x3d936dde	0.0719869
245	0xbce11257	-0.027474565
246	0x3d872f0c	0.0660077
247	0xbddf7fbf	-0.109130375
248	0x3de4fa0c	0.11180505
249	0xbdf2dc5b	-0.11858436
250	0xbbb2e568	-0.0054594763
251	0xbc2fd704	-0.010732416
252	0x3da54b90	0.08071053
253	0x3d103397	0.03520545
254	0x3df51339	0.11966557
255	0x3d6e72f1	0.058215085

mlp.mlp.4.bias f4 [13]
0	0xbdb57cf6	-0.08861725
1	0xbed043b0	-0.4067664
2	0xbc9a128c	-0.018807672
3	0xbcaf2dae	-0.021384086
4	0x3c013e2c	0.007888358
5	0x3e10b969	0.14133228
6	0xbd229829	-0.039695892
7	0x3e143b12	0.14475659
8	0xbda75aa4	-0.08171585
9	0x3d593afa	0.05303476
10	0xbe2bc3a0	-0.16773844
11	0x3e5174be	0.2045469
12	0xbd3efa8d	-0.046625663

exp_avg f4 [128, 15]
0	0xc348dd84	-200.8653
1	0x42a9bac9	84.864815
2	0xc1bb32a3	-23.399725
3	0x3f33ad69	0.7018648
4	0x3f825f90	1.0185413
5	0xbc783517	-0.015149376
6	0x3f7417e7	0.9534897
7	0xbe0bdb3b	-0.13657849
8	0x3e3504f4	0.1767767
9	0x3fda1f79	1.7040855
10	0x3e224653	0.15847139
11	0xc02a9f11	-2.6659586
12	0xbfbb8ee9	-1.4652988
13	0x00000000	0.0
14	0x3cbb0826	0.022831034
15	0xc26772a6	-57.86196
16	0x4186eeae	16.866543
17	0xbfea0dea	-1.8285496
18	0x3dced57a	0.10099311
19	0xbe1345d0	-0.143821
20	0xbf83b445	-1.0289389
21	0x3eb6f3bf	0.3573284
22	0xbf653858	-0.895391
23	0x3f765a98	0.96231985
24	0x3cc3053a	0.023806203
25	0xbf224e0a	-0.6340033
26	0xbeb3125e	-0.3497495
27	0xbe5f900b	-0.21832292
28	0x00000000	0.0
29	0xbd1150ac	-0.035477325
30	0xc285cfd7	-66.90594
31	0x41bd27a5	23.644358
32	0xbfdfa51a	-1.747226
33	0x3e0427b4	0.1290577
34	0xbe2653e3	-0.16242938
35	0xbf8bb5d3	-1.0914863
36	0x3ee79703	0.452324
37	0xbf94374b	-1.1579374
38	0x3f81ad7b	1.0131067
39	0xbdba7541	-0.09104396
40	0xbf53055c	-0.8243005
41	0xbf24390b	-0.6414954
42	0xbc5e5918	-0.013571046
43	0x00000000	0.0
44	0xbd00e5e2	-0.031469233
45	0xc2a230f1	-81.09559
46	0x41d287e2	26.316349
47	0xc00d24d4	-2.2053728
48	0x3e0a5da0	0.13512278
49	0xbe144bc9	-0.14482035
50	0xbfaa418f	-1.3301257
51	0x3f171e63	0.5903074
52	0xbfab23cb	-1.3370298
53	0x3fa5aec1	1.2943956
54	0xbdeffa11	-0.11717618
55	0xbf8054af	-1.0025843
56	0xbf3dccc5	-0.7414058
57	0xbd7ee673	-0.062231492
58	0x00000000	0.0
59	0xbd22bd92	-0.03973157
60	0xc30924d3	-137.14384
61	0x424078a2	48.117805
62	0xc18e06ec	-17.75338
63	0x3f4296c7	0.7601132
64	0x3fa11403	1.2584232
65	0x3e9c8aa8	0.30574536
66	0x3ee7f19a	0.45301515
67	0x3f903beb	1.1268286
68	0xbed1f3e6	-0.41006392
69	0x3fc9705a	1.5737412
70	0x3f46c656	0.77646387
71	0xc00721ac	-2.1114302
72	0xbfbb0776	-1.4611652
73	0x00000000	0.0
74	0x3cc85032	0.024452303
75	0xc29016c8	-72.044495
76	0x41bf58b9	23.918322
77	0xbfd51e1e	-1.6649816
78	0x3e39331b	0.18085901
79	0xbd27e26c	-0.040987417
80	0xbf872eaf	-1.0561122
81	0x3f2a6706	0.6656345
82	0xbf8bdaa4	-1.0926099
83	0x3f98e558	1.194499
84	0xbe69cdfa	-0.2283248
85	0xbf84a88b	-1.0363935
86	0xbf66e8b8	-0.9019885
87	0x3e529c6f	0.20567487
88	0x00000000	0.0
89	0xbd044027	-0.032287743
90	0xc2413729	-48.303867
91	0x4185affd	16.710932
92	0xbfb3acfb	-1.4037164
93	0xbd03920c	-0.032121703
94	0xbe46e229	-0.19422211
95	0xbf534cd4	-0.82539105
96	0x3e6816a7	0.22664891
97	0xbf837578	-1.0270224
98	0x3f1a5fc3	0.6030237
99	0xbd19b224	-0.037523404
100	0xbedfbcc7	-0.43698713
101	0xbeb912cd	-0.36147156
102	0xbe2088cd	-0.15677185
103	0x00000000	0.0
104	0xbd1c3844	-0.038139597
105	0x41e11201	28.133791
106	0xc10b06a4	-8.689121
107	0x3e233153	0.15936784
108	0xbedf8bc0	-0.43661308
109	0xbe8e77d2	-0.2782579
110	0x3e2bd4e9	0.16780438
111	0xbe980529	-0.29691437
112	0xbf28dc3b	-0.65961045
113	0xbeb9dffe	-0.36303705
114	0x3e8d1657	0.27556106
115	0x3edec056	0.43506116
116	0x3f0803ba	0.53130686
117	0xbf0923b3	-0.535701
118	0x00000000	0.0
119	0xbc44ac05	-0.012003903
120	0x4271e078	60.469208
121	0xc1d3e673	-26.487524
122	0x3fee950b	1.8639234
123	0xbebc57d6	-0.36785764
124	0x3dcefa6c	0.10106358
125	0x3f1da799	0.6158386
126	0xbed2b4ed	-0.4115366
127	0x3f1b97b1	0.6077834
128	0xbedc262a	-0.42997867
129	0x3ecf074b	0.40435252
130	0x3f6a85cd	0.91610414
131	0x3f2ac119	0.66700894
132	0xbf394a77	-0.7237925
133	0x00000000	0.0
134	0xbc092d4d	-0.008372617
135	0xc3199adc	-153.60492
136	0x429394e0	73.79077
137	0xc1af0e87	-21.882093
138	0x3f348bdc	0.7052591
139	0x3fb01e7a	1.3759301
140	0x3f1a63d8	0.603086
141	0x3f35011a	0.70704806
142	0xbe015731	-0.12630917
143	0xbf0ccb16	-0.54997385
144	0x400d22bc	2.205245
145	0x3f6cd4ed	0.925124
146	0xc0522585	-3.28354
147	0xbfe69fa1	-1.8017465
148	0x00000000	0.0
149	0x3cc51ff4	0.024063088
150	0xc2d272ce	-105.22423
151	0x4212e94e	36.727837
152	0xc158cd2f	-13.550094
153	0x3f108400	0.56451416
154	0x3f6bad5b	0.92061394
155	0x3e9d2dc5	0.30698982
156	0x3eb765ee	0.35819954
157	0x3f6ac8b1	0.9171248
158	0xbe8c1cc8	-0.27365708
159	0x3f994bd5	1.1976267
160	0x3f17d3c9	0.59307534
161	0xbfc9af90	-1.5756702
162	0xbf9211ea	-1.1411717
163	0x00000000	0.0
164	0x3c84d119	0.016212987
165	0xc314b9a4	-148.72516
166	0x4251e759	52.475925
167	0xc199ccea	-19.225056
168	0x3f5305a9	0.8243051
169	0x3fac60dd	1.346706
170	0x3eafcac9	0.343344
171	0x3efd27b8	0.49444366
172	0x3fa12179	1.258834
173	0xbec42cdc	-0.38315475
174	0x3fdba425	1.7159468
175	0x3f5a04f8	0.8516383
176	0xc010e007	-2.2636735
177	0xbfcbd4dd	-1.5924336
178	0x00000000	0.0
179	0x3cdb85ee	0.026797261
180	0xc2077055	-33.8597
181	0x410fa5a8	8.977943
182	0xbf9f811a	-1.2461274
183	0x3c45796a	0.012052873
184	0xbd9d8fa9	-0.076934166
185	0xbf2ff0ff	-0.68727106
186	0x3e3ee145	0.18640621
187	0xbf13b0b3	-0.57691497
188	0x3f1b3b97	0.606378
189	0x3d4b4bbb	0.04963277
190	0xbea6430d	-0.3247303
191	0xbdb4515d	-0.08804581
192	0xbe877df9	-0.26463297
193	0x00000000	0.0
194	0xbcab0760	-0.02087754
195	0xc1fa55c7	-31.291883
196	0x4113d3d6	9.239218
197	0xbf91c7ec	-1.1389136
198	0x3d91d7a9	0.07121212
199	0xbe07c00b	-0.13256852
200	0xbf280e54	-0.65646863
201	0x3dd60d2b	0.1045173
202	0xbf0458f5	-0.5169824
203	0x3f101028	0.5627465
204	0x3dcd85b4	0.100352675
205	0xbe7dca8c	-0.24784297
206	0xbc5cafc2	-0.013469638
207	0xbe927457	-0.28604385
208	0x00000000	0.0
209	0xbc76598d	-0.015035999
210	0xc224eb89	-41.230015
211	0x412fb1bb	10.980891
212	0xbfd33e61	-1.6503412
213	0xbc8996b8	-0.016795501
214	0xbe2e369d	-0.17013021
215	0xbf61d89d	-0.8822115
216	0x3e0fdfe7	0.14050256
217	0xbf41927f	-0.7561416
218	0x3f2ff4ef	0.68733114
219	0x3dee0b32	0.11623229
220	0xbe976ba2	-0.29574305
221	0xbae640fe	-0.0017566977
222	0xbee21385	-0.44155517
223	0x00000000	0.0
224	0xbd04490c	-0.032296225
225	0xc2cee0bc	-103.438934
226	0x422711b1	41.767277
227	0xc15d3dc1	-13.827577
228	0x3ef6849a	0.48148042
229	0x3f4216bf	0.7581596
230	0x3f06725a	0.52518237
231	0x3ed4607f	0.4147987
232	0x3f12337c	0.5710981
233	0xbeb76344	-0.3581792
234	0x3f9cc616	1.2247951
235	0x3f00f162	0.5036832
236	0xbfceb3ad	-1.6148583
237	0xbf887f06	-1.0663764
238	0x00000000	0.0
239	0x3ccc7503	0.02495814
240	0xc2ee8350	-119.25647
241	0x4238c5a7	46.19302
242	0xc17c7708	-15.77906
243	0x3f137fd3	0.5761692
244	0x3f6aac1c	0.9166887
245	0x3ef1834f	0.47170493
246	0x3ee435ac	0.44572198
247	0x3f41a74e	0.7564591
248	0xbec4886d	-0.38385335
249	0x3fadd151	1.3579503
250	0x3f10cedb	0.56565636
251	0xbfe7aefd	-1.8100277
252	0xbf982dff	-1.1889037
253	0x00000000	0.0
254	0x3ced2268	0.02894707
255	0xc31fe766	-159.9039

exp_avg_sq f4 [128, 15]
0	0x4add2938	7.247004e+06
1	0x4989d447	1.1290969e+06
2	0x483bec2a	192432.66
3	0x4503ecaf	2110.7927
4	0x459c1824	4995.0176
5	0x457bae31	4026.887
6	0x46a09bb8	20557.86
7	0x45fc27e2	8068.9854
8	0x45587820	3463.5078
9	0x45560110	3424.0664
10	0x461ec243	10160.565
11	0x46d3d2be	27113.371
12	0x4483fc78	1055.8896
13	0x00000000	0.0
14	0x3d5a54ec	0.053303644
15	0x47ce37b5	105583.414
16	0x46a555c4	21162.883
17	0x4412afd7	586.7475
18	0x443d39ba	756.902
19	0x445a414f	873.02045
20	0x43ca828c	405.0199
21	0x44ed11b6	1896.5535
22	0x441ba22b	622.5339
23	0x44cfe4fe	1663.156
24	0x434db1c4	205.6944
25	0x444b4b19	813.1734
26	0x43d7d466	431.65936
27	0x44de87f1	1780.2482
28	0x00000000	0.0
29	0x3c671c68	0.014105894
30	0x4788c655	70028.664
31	0x46305d44	11287.316
32	0x438de455	283.78384
33	0x43a1e0e7	323.75705
34	0x43b8ab4c	369.33826
35	0x4334986b	180.59538
36	0x444a6597	809.58734
37	0x438cda44	281.7052
38	0x4430adf2	706.7179
39	0x42b21182	89.034195
40	0x43a7ba19	335.4539
41	0x43350b42	181.04398
42	0x443d6ce8	757.70166
43	0x00000000	0.0
44	0x3c35e5dc	0.011102166
45	0x47c3585e	100016.734
46	0x4658f191	13884.392
47	0x42f4e866	122.4539
48	0x41857d01	16.686037
49	0x41f61726	30.761303
50	0x421d931c	39.39366
51	0x421d3e33	39.31074
52	0x428236d6	65.1071
53	0x4207c0a8	33.93814
54	0x42162e19	37.545017
55	0x424f57fe	51.83593
56	0x41eec7fe	29.847652
57	0x4202b9a7	32.6813
58	0x00000000	0.0
59	0x3c815d14	0.015791453
60	0x4a7590ab	4.0233388e+06
61	0x49157745	612212.3
62	0x47b4d4eb	92585.836
63	0x45837b4d	4207.4126
64	0x46819e83	16591.256
65	0x45108df7	2312.8728
66	0x46b9a3c0	23761.875
67	0x46418a6b	12386.6045
68	0x46b3e13e	23024.621
69	0x46962800	19220.0
70	0x468ad3cb	17769.896
71	0x45bcd26a	6042.302
72	0x463e31bd	12172.435
73	0x00000000	0.0
74	0x3d02700a	0.03184513
75	0x481ed867	162657.61
76	0x46999a83	19661.256
77	0x4365f9f8	229.97644
78	0x419c2398	19.51738
79	0x4221ed97	40.48202
80	0x429ccb31	78.39686
81	0x41d4b470	26.588104
82	0x42c5fe53	98.99673
83	0x41a598de	20.699642
84	0x42525c12	52.589912
85	0x42126692	36.600166
86	0x4211f370	36.487732
87	0x41b5b731	22.714449
88	0x00000000	0.0
89	0x3ccfde26	0.025374483
90	0x475c97d0	56471.812
91	0x460232b0	8332.672
92	0x43f97b56	498.96356
93	0x44210eaf	644.22943
94	0x44341f6e	720.4911
95	0x43ab15f8	342.17163
96	0x44c91d9c	1608.9253
97	0x440202c1	520.043
98	0x44ae1e2f	1392.9432
99	0x4315b62b	149.7116
100	0x441cdae9	627.4205
101	0x43bdbeca	379.49054
102	0x44bb9ff1	1500.9982
103	0x00000000	0.0
104	0x3c22acb4	0.009928871
105	0x485b7bab	224750.67
106	0x471c13eb	39955.918
107	0x442884dd	674.076
108	0x442119fe	644.4061
109	0x443c75a7	753.8383
110	0x43c6c3bf	397.52927
111	0x44cb2b43	1625.3519
112	0x442cec17	691.6889
113	0x44b13766	1417.7312
114	0x43577ee3	215.49565
115	0x443b752d	749.8309
116	0x43ce3b04	412.46106
117	0x44b8e208	1479.0635
118	0x00000000	0.0
119	0x3cf0f7d5	0.02941505
120	0x48051e75	136313.83
121	0x46b92722	23699.566
122	0x43c87626	400.92303
123	0x43a668be	332.8183
124	0x43dd978f	443.18405
125	0x43682944	232.1612
126	0x44858615	1068.1901
127	0x444039e2	768.9044
128	0x444b21d9	812.5289
129	0x430572cf	133.44847
130	0x43f82e8a	496.3636
131	0x43a922b2	338.27106
132	0x443fd4a0	767.32227
133	0x00000000	0.0
134	0x3c964a05	0.018345842
135	0x4ab2e024	5.861394e+06
136	0x496b89c5	964764.3
137	0x480a43af	141582.73
138	0x458ce02c	4508.0215
139	0x464b08ab	12994.167
140	0x45439e86	3129.9077
141	0x469ff867	20476.201
142	0x45ff63f1	8172.4927
143	0x466ee496	15289.146
144	0x4638bca6	11823.162
145	0x4656264d	13705.575
146	0x462bfffb	11007.995
147	0x46033107	8396.257
148	0x00000000	0.0
149	0x3d25431d	0.040347207
150	0x4a2a3a10	2.788996e+06
151	0x48d3e5fd	433967.9
152	0x47819bd6	66359.67
153	0x4504e423	2126.2585
154	0x45d99e79	6963.809
155	0x44cb74b0	1627.6465
156	0x4638db5d	11830.841
157	0x45a9a0b0	5428.086
158	0x4608ee3a	8763.557
159	0x45de7348	7118.41
160	0x45f1c52e	7736.6475
161	0x45bb0f5e	5985.921
162	0x45908314	4624.385
163	0x00000000	0.0
164	0x3caf8c65	0.02142925
165	0x4a6688bd	3.7770712e+06
166	0x490f76a1	587626.06
167	0x47b23bf2	91255.89
168	0x452ca02c	2762.0107
169	0x460f0886	9154.131
170	0x4502123d	2081.14
171	0x4674dc64	15671.098
172	0x45eafa5f	7519.2964
173	0x4634ed09	11579.259
174	0x461450ba	9492.182
175	0x462559a6	10582.412
176	0x460b6cc5	8923.192
177	0x45bcd5e0	6042.7344
178	0x00000000	0.0
179	0x3ce56b8b	0.028005382
180	0x47250121	42241.13
181	0x46189f04	9767.754
182	0x43839adf	263.20993
183	0x43b3c1df	359.51462
184	0x43cc1ee5	408.24136
185	0x43389c3b	184.61028
186	0x446209a4	904.15063
187	0x439287c6	293.06073
188	0x44464fc8	793.2466
189	0x42bcdc3d	94.43015
190	0x43c26629	388.79813
191	0x434ccf69	204.8102
192	0x445369c5	845.65265
193	0x00000000	0.0
194	0x3b9c324a	0.004766737
195	0x479c660b	80076.086
196	0x468abf88	17759.766
197	0x440e91b2	570.2765
198	0x4443d3c3	783.3088
199	0x445e222f	888.5341
200	0x43cabcdc	405.47546
201	0x44f5a49c	1965.144
202	0x441e1968	632.397
203	0x44d71c05	1720.8756
204	0x4343e51a	195.89493
205	0x444d52ae	821.2919
206	0x43d9b7a9	435.43484
207	0x44e5fbcd	1839.8688
208	0x00000000	0.0
209	0x3c1bbbc2	0.009505214
210	0x481ce43a	160656.9
211	0x46ea03bf	29953.873
212	0x448b9506	1116.657
213	0x4446075a	792.11487
214	0x44ca091c	1616.2847
215	0x43bfac08	383.344
216	0x45368ae9	2920.682
217	0x44af00b5	1400.0221
218	0x45266030	2662.0117
219	0x449c22b0	1249.084
220	0x44b7b098	1469.5186
221	0x43d90150	434.01025
222	0x450e369a	2275.4126
223	0x00000000	0.0
224	0x3c55ccd0	0.013049319
225	0x4a8ecc3c	4.679198e+06
226	0x492d0dff	708831.94
227	0x47e2623c	115908.47
228	0x45a55e52	5291.79
229	0x467af1ac	16060.418
230	0x45397f47	2967.9548
231	0x46b03f40	22559.625
232	0x46326453	11417.081
233	0x46965740	19243.625
234	0x4672b7b1	15533.923
235	0x46810020	16512.062
236	0x463b613e	11992.311
237	0x462712f2	10692.736
238	0x00000000	0.0
239	0x3d21423e	0.039369814
240	0x4a8d760e	4.635399e+06
241	0x4937e8f6	753295.4
242	0x47d8d75a	111022.7
243	0x45a44b07	5257.3784
244	0x465bcd7e	14067.373
245	0x45390abb	2960.6707
246	0x469119a1	18572.814
247	0x45f6551c	7882.6387
248	0x4678e015	15928.0205
249	0x463bc1bb	12016.433
250	0x464dce23	13171.534
251	0x45fe2bb2	8133.462
252	0x4610fd68	9279.352
253	0x00000000	0.0
254	0x3d250b27	0.04029384
255	0x4abe3d76	6.233787e+06

exp_avg f4 [128]
0	0x3d63b43c	0.055591807
1	0xbe0ce602	-0.13759616
2	0xbe770c2e	-0.2412574
3	0xbe896eaa	-0.26842242
4	0x3e8e1fe5	0.2775871
5	0xbe9d461e	-0.30717558
6	0xbe415adc	-0.18882316
7	0x3e2275cb	0.15865247
8	0x3ea2d6c4	0.31804478
9	0x3e31c452	0.17360047
10	0x3e6621eb	0.22473876
11	0x3e9a8b9a	0.30184633
12	0xbd64ec4a	-0.055889405
13	0xbd4445bc	-0.047918066
14	0xbd32e957	-0.04367956
15	0x3e436ae5	0.19083746
16	0x3e5b1fa2	0.21398786
17	0x3ea342d6	0.3188693
18	0x3dd0f095	0.102021374
19	0x3e954a15	0.29158083
20	0xbec88861	-0.3916655
21	0x3ea0bf98	0.31396174
22	0x3e717aad	0.23581953
23	0x3e39ebeb	0.18156402
24	0x3e1cb2a2	0.15302518
25	0x3e4d1f00	0.20031357
26	0xbddee485	-0.108834304
27	0x3e8f6b76	0.28011674
28	0xbe38b9ba	-0.18039599
29	0x3e691bae	0.22764465
30	0x3dbc07c5	0.091811694
31	0xbc493020	-0.01227954
32	0x3e8f1492	0.2794538
33	0x3e216394	0.15760642
34	0x3e5ba127	0.21448193
35	0xbdc1b1b7	-0.094577245
36	0x3db088df	0.08619856
37	0x3c8b99e9	0.017041164
38	0xbe274a39	-0.16336907
39	0x3e19b760	0.15011358
40	0x3e923845	0.28558555
41	0x3d8f2c3b	0.06990858
42	0x3e627615	0.22115357
43	0x3db2ed78	0.087367
44	0x3d2d4026	0.042297505
45	0xbbde2f2c	-0.0067805257
46	0xbe766d9f	-0.24065255
47	0xbe806c4b	-0.2508262
48	0x3e8da853	0.27667484
49	0x3de3a1ca	0.11114843
50	0xbe2565be	-0.16152093
51	0x3e183f4f	0.148679
52	0x3f0c557c	0.5481794
53	0x3d55c05e	0.05218541
54	0x3e3470ed	0.17621203
55	0x3e440335	0.19141848
56	0xbe0ef7e3	-0.13961749
57	0x3d76f2a6	0.06029
58	0x3d8cc20a	0.068729475
59	0xbe307c8a	-0.17235008
60	0xbe40cb26	-0.18827495
61	0x3e5e6cd3	0.217212
62	0xbcb9655e	-0.022631343
63	0x3e86caee	0.26326698
64	0xbdd20e88	-0.10256678
65	0x3eb8309a	0.3597458
66	0xbe065a9c	-0.13120502
67	0x3e2d3603	0.16915135
68	0x3f1c605b	0.61084527
69	0x3da629b1	0.08113421
70	0x3e09d4e3	0.13460116
71	0x3d3d4d7d	0.046216477
72	0x3eb2874f	0.34868857
73	0xbf1e073c	-0.6172979
74	0x3c379b7b	0.011206503
75	0xbe139778	-0.1441325
76	0x3e02e6af	0.12783311
77	0x3e04af0c	0.129574
78	0xbdb030ea	-0.086030796
79	0x3e5ff5e5	0.21871145
80	0x3e15608f	0.14587615
81	0x3ec20b4a	0.37899238
82	0x3e587bda	0.21140996
83	0x3e06573d	0.13119216
84	0x3dc8dd66	0.098078534
85	0xbd7ba8b1	-0.061440174
86	0x3e6446ec	0.2229268
87	0xbe170456	-0.14747748
88	0x3e81c8c8	0.25348496
89	0xbd4128ea	-0.04715816
90	0xbccffef3	-0.025390124
91	0x3e66b928	0.22531569
92	0x3e876e63	0.26451406
93	0x3dbf497d	0.09340189
94	0xbe0e4516	-0.13893542
95	0x3e041814	0.1289981
96	0xbe7a7677	-0.24459253
97	0x3e6bec91	0.23039462
98	0x3e9b1e67	0.30296633
99	0xbf1b780c	-0.6073005
100	0x3c821b1a	0.015882064
101	0x3e3c3c40	0.18382359
102	0xbe9c418e	-0.30518764
103	0x3eae3b2f	0.34029528
104	0xbdb50449	-0.08838708
105	0xbeba43eb	-0.36379942
106	0x3bcdcaf8	0.0062802993
107	0x3b756042	0.0037441407
108	0x3dd3fc54	0.10350862
109	0xbf055b71	-0.52092654
110	0x3ea14e14	0.3150488
111	0xbe40d313	-0.18830518
112	0x3f06909c	0.52564406
113	0xbde43c14	-0.111442715
114	0x3e850385	0.25979248
115	0x3db35244	0.08755925
116	0xbe43c49d	-0.19117971
117	0x3e052a1c	0.13004345
118	0x3e1ec1bd	0.15503593
119	0x3e78503f	0.24249361
120	0xbced3302	-0.028954986
121	0x3de95ce1	0.11394668
122	0xbda8543b	-0.08219191
123	0x3e3692b4	0.178294
124	0xbd4ceb50	-0.0500291
125	0xbd4a4f1d	-0.049391855
126	0xbd1091b2	-0.035295196
127	0xbdeb5d88	-0.11492449

exp_avg_sq f4 [128]
0	0x4170adde	15.042448
1	0x3fbf2353	1.4932655
2	0x3f6722d0	0.90287495
3	0x3f956ffb	1.1674799
4	0x4121c209	10.109872
5	0x3fde290d	1.7356278
6	0x3f4ff367	0.8123078
7	0x4024d701	2.5756228
8	0x3fd44213	1.6582664
9	0x4149196b	12.568706
10	0x40d2f7ce	6.5927496
11	0x410deabb	8.869807
12	0x3f1fa211	0.6235667
13	0x3f971989	1.1804668
14	0x3fcbd586	1.5924537
15	0x413a78c1	11.654481
16	0x412c0121	10.750276
17	0x4185d859	16.730639
18	0x40fb6fbb	7.857389
19	0x41c7e985	24.989023
20	0x4005a59c	2.088233
21	0x40223f31	2.535107
22	0x411a6559	9.649743
23	0x400e2b15	2.2213795
24	0x41778745	15.470525
25	0x4103b6df	8.232146
26	0x3effdfeb	0.49975523
27	0x416a0788	14.626839
28	0x3f4f6978	0.8102031
29	0x4112e8a7	9.1818
30	0x3f8826c3	1.0636829
31	0x3f78a6bf	0.97129434
32	0x417d104e	15.816481
33	0x41993eab	19.1556
34	0x4145a715	12.3532915
35	0x3f75d4d9	0.96027905
36	0x405131b5	3.2686589
37	0x3fa2129d	1.266193
38	0x3eea9419	0.45816115
39	0x410d6fe5	8.839818
40	0x40b46bec	5.638174
41	0x3f1f562f	0.6224088
42	0x412dcf88	10.863167
43	0x40aff042	5.4980783
44	0x3fd03b2d	1.6268059
45	0x3eedf576	0.46476334
46	0x3f87ba72	1.0603774
47	0x3f390178	0.72267866
48	0x414a6c08	12.651375
49	0x40bac5ab	5.8366294
50	0x3f63b9f3	0.8895561
51	0x401611b3	2.3448303
52	0x430a00ec	138.0036
53	0x4145f988	12.373421
54	0x411bdc1a	9.741236
55	0x411ff843	9.998111
56	0x3f6ac744	0.91710305
57	0x402d24a3	2.7053611
58	0x3fb985b7	1.4493932
59	0x3f8b73c2	1.0894701
60	0x3fb17e9b	1.3866762
61	0x4187d728	16.980057
62	0x3ef1f57d	0.47257605
63	0x418c1c65	17.513865
64	0x3f54edef	0.8317556
65	0x413de389	11.868051
66	0x3f1f8ad9	0.6232124
67	0x40e3b3e3	7.115709
68	0x41d53186	26.649181
69	0x3f4bbab8	0.79581785
70	0x41969654	18.823402
71	0x3f88431c	1.064548
72	0x4161ba75	14.108022
73	0x408128ec	4.0362453
74	0x3f18c522	0.596758
75	0x3f9e03c1	1.2344896
76	0x400c7052	2.1943555
77	0x414ca677	12.790641
78	0x3f2d3d24	0.6767142
79	0x40912491	4.5357137
80	0x40c3c46f	6.1177287
81	0x418fd6c8	17.979874
82	0x41868621	16.815493
83	0x405d9d2a	3.4627175
84	0x4126969f	10.411773
85	0x3f5abc6a	0.8544375
86	0x4049a25a	3.1505342
87	0x3ff8600d	1.9404312
88	0x41a635d6	20.776287
89	0x3f030b41	0.5118905
90	0x3fdf53c0	1.7447433
91	0x417fce80	15.987915
92	0x40715780	3.7709656
93	0x411f68ab	9.963054
94	0x3f1a48dc	0.60267425
95	0x40884b94	4.259226
96	0x4007c49e	2.1213756
97	0x412f03ce	10.938429
98	0x417459ab	15.271892
99	0x409f9459	4.986859
100	0x4126028a	10.37562
101	0x40ec78c9	7.3897443
102	0x40baa213	5.8322845
103	0x4122715b	10.152675
104	0x3f929f73	1.145491
105	0x3fda355b	1.7047533
106	0x41586e35	13.526906
107	0x3fdb8ead	1.7152916
108	0x4137bdf6	11.483877
109	0x4029ebbe	2.6550136
110	0x412c92ee	10.7858715
111	0x3fb6a225	1.4268233
112	0x4260776d	56.116627
113	0x3f80513c	1.0024791
114	0x4133bca2	11.233553
115	0x3f3d1a77	0.7386851
116	0x3f4f7909	0.8104406
117	0x3fad592c	1.3542838
118	0x4091464b	4.5398307
119	0x40474a52	3.1139112
120	0x3fcaef5d	1.5854298
121	0x40b8da0f	5.7766185
122	0x3eee2d0f	0.46518752
123	0x41151f05	9.320073
124	0x3f80937e	1.0045011
125	0x3ea87a69	0.32905892
126	0x3f0c90b0	0.54908276
127	0x3ef244fd	0.4731826
